<?xml version="1.0" ?>
<net batch="1" name="LapNet_chkpt_better_epoch17274_GPU0" version="6">
	<layers>
		<layer id="0" name="input" precision="FP32" type="Input">
			<output>
				<port id="0">
					<dim>1</dim>
					<dim>3</dim>
					<dim>512</dim>
					<dim>1024</dim>
				</port>
			</output>
		</layer>
		<layer id="1" name="1113" precision="FP32" type="Convolution">
			<data dilations="1,1" group="1" kernel="3,3" output="5" pads_begin="1,1" pads_end="1,1" strides="2,2"/>
			<input>
				<port id="0">
					<dim>1</dim>
					<dim>3</dim>
					<dim>512</dim>
					<dim>1024</dim>
				</port>
			</input>
			<output>
				<port id="3">
					<dim>1</dim>
					<dim>5</dim>
					<dim>256</dim>
					<dim>512</dim>
				</port>
			</output>
			<blobs>
				<weights offset="0" size="540"/>
				<biases offset="540" size="20"/>
			</blobs>
		</layer>
		<layer id="2" name="1115" precision="FP32" type="PReLU">
			<data channel_shared="1"/>
			<input>
				<port id="0">
					<dim>1</dim>
					<dim>5</dim>
					<dim>256</dim>
					<dim>512</dim>
				</port>
			</input>
			<output>
				<port id="2">
					<dim>1</dim>
					<dim>5</dim>
					<dim>256</dim>
					<dim>512</dim>
				</port>
			</output>
			<blobs>
				<weights offset="560" size="4"/>
			</blobs>
		</layer>
		<layer id="3" name="1116" precision="FP32" type="Pooling">
			<data exclude-pad="true" kernel="2,2" pads_begin="0,0" pads_end="0,0" pool-method="max" rounding_type="floor" strides="2,2"/>
			<input>
				<port id="0">
					<dim>1</dim>
					<dim>3</dim>
					<dim>512</dim>
					<dim>1024</dim>
				</port>
			</input>
			<output>
				<port id="1">
					<dim>1</dim>
					<dim>3</dim>
					<dim>256</dim>
					<dim>512</dim>
				</port>
			</output>
		</layer>
		<layer id="4" name="1117" precision="FP32" type="Concat">
			<data axis="1"/>
			<input>
				<port id="0">
					<dim>1</dim>
					<dim>5</dim>
					<dim>256</dim>
					<dim>512</dim>
				</port>
				<port id="1">
					<dim>1</dim>
					<dim>3</dim>
					<dim>256</dim>
					<dim>512</dim>
				</port>
			</input>
			<output>
				<port id="2">
					<dim>1</dim>
					<dim>8</dim>
					<dim>256</dim>
					<dim>512</dim>
				</port>
			</output>
		</layer>
		<layer id="5" name="1118" precision="FP32" type="Convolution">
			<data dilations="1,1" group="1" kernel="1,1" output="2" pads_begin="0,0" pads_end="0,0" strides="1,1"/>
			<input>
				<port id="0">
					<dim>1</dim>
					<dim>8</dim>
					<dim>256</dim>
					<dim>512</dim>
				</port>
			</input>
			<output>
				<port id="3">
					<dim>1</dim>
					<dim>2</dim>
					<dim>256</dim>
					<dim>512</dim>
				</port>
			</output>
			<blobs>
				<weights offset="564" size="64"/>
				<biases offset="628" size="8"/>
			</blobs>
		</layer>
		<layer id="6" name="1120" precision="FP32" type="Convolution">
			<data dilations="1,1" group="2" kernel="3,3" output="2" pads_begin="1,1" pads_end="1,1" strides="1,1"/>
			<input>
				<port id="0">
					<dim>1</dim>
					<dim>2</dim>
					<dim>256</dim>
					<dim>512</dim>
				</port>
			</input>
			<output>
				<port id="3">
					<dim>1</dim>
					<dim>2</dim>
					<dim>256</dim>
					<dim>512</dim>
				</port>
			</output>
			<blobs>
				<weights offset="636" size="72"/>
				<biases offset="708" size="8"/>
			</blobs>
		</layer>
		<layer id="7" name="1122" precision="FP32" type="Convolution">
			<data dilations="1,1" group="2" kernel="3,3" output="2" pads_begin="1,1" pads_end="1,1" strides="1,1"/>
			<input>
				<port id="0">
					<dim>1</dim>
					<dim>2</dim>
					<dim>256</dim>
					<dim>512</dim>
				</port>
			</input>
			<output>
				<port id="3">
					<dim>1</dim>
					<dim>2</dim>
					<dim>256</dim>
					<dim>512</dim>
				</port>
			</output>
			<blobs>
				<weights offset="716" size="72"/>
				<biases offset="788" size="8"/>
			</blobs>
		</layer>
		<layer id="8" name="1124" precision="FP32" type="Convolution">
			<data dilations="1,1" group="2" kernel="3,1" output="2" pads_begin="1,0" pads_end="1,0" strides="1,1"/>
			<input>
				<port id="0">
					<dim>1</dim>
					<dim>2</dim>
					<dim>256</dim>
					<dim>512</dim>
				</port>
			</input>
			<output>
				<port id="3">
					<dim>1</dim>
					<dim>2</dim>
					<dim>256</dim>
					<dim>512</dim>
				</port>
			</output>
			<blobs>
				<weights offset="796" size="24"/>
				<biases offset="820" size="8"/>
			</blobs>
		</layer>
		<layer id="9" name="1126" precision="FP32" type="Convolution">
			<data dilations="1,1" group="2" kernel="1,3" output="2" pads_begin="0,1" pads_end="0,1" strides="1,1"/>
			<input>
				<port id="0">
					<dim>1</dim>
					<dim>2</dim>
					<dim>256</dim>
					<dim>512</dim>
				</port>
			</input>
			<output>
				<port id="3">
					<dim>1</dim>
					<dim>2</dim>
					<dim>256</dim>
					<dim>512</dim>
				</port>
			</output>
			<blobs>
				<weights offset="828" size="24"/>
				<biases offset="852" size="8"/>
			</blobs>
		</layer>
		<layer id="10" name="1128" precision="FP32" type="Convolution">
			<data dilations="1,1" group="2" kernel="1,3" output="2" pads_begin="0,1" pads_end="0,1" strides="1,1"/>
			<input>
				<port id="0">
					<dim>1</dim>
					<dim>2</dim>
					<dim>256</dim>
					<dim>512</dim>
				</port>
			</input>
			<output>
				<port id="3">
					<dim>1</dim>
					<dim>2</dim>
					<dim>256</dim>
					<dim>512</dim>
				</port>
			</output>
			<blobs>
				<weights offset="860" size="24"/>
				<biases offset="884" size="8"/>
			</blobs>
		</layer>
		<layer id="11" name="1130" precision="FP32" type="Convolution">
			<data dilations="1,1" group="2" kernel="3,1" output="2" pads_begin="1,0" pads_end="1,0" strides="1,1"/>
			<input>
				<port id="0">
					<dim>1</dim>
					<dim>2</dim>
					<dim>256</dim>
					<dim>512</dim>
				</port>
			</input>
			<output>
				<port id="3">
					<dim>1</dim>
					<dim>2</dim>
					<dim>256</dim>
					<dim>512</dim>
				</port>
			</output>
			<blobs>
				<weights offset="892" size="24"/>
				<biases offset="916" size="8"/>
			</blobs>
		</layer>
		<layer id="12" name="1132" precision="FP32" type="Concat">
			<data axis="1"/>
			<input>
				<port id="0">
					<dim>1</dim>
					<dim>2</dim>
					<dim>256</dim>
					<dim>512</dim>
				</port>
				<port id="1">
					<dim>1</dim>
					<dim>2</dim>
					<dim>256</dim>
					<dim>512</dim>
				</port>
				<port id="2">
					<dim>1</dim>
					<dim>2</dim>
					<dim>256</dim>
					<dim>512</dim>
				</port>
				<port id="3">
					<dim>1</dim>
					<dim>2</dim>
					<dim>256</dim>
					<dim>512</dim>
				</port>
			</input>
			<output>
				<port id="4">
					<dim>1</dim>
					<dim>8</dim>
					<dim>256</dim>
					<dim>512</dim>
				</port>
			</output>
		</layer>
		<layer id="13" name="1153/Output_0/Data__const" precision="I32" type="Const">
			<output>
				<port id="1">
					<dim>5</dim>
				</port>
			</output>
			<blobs>
				<custom offset="924" size="20"/>
			</blobs>
		</layer>
		<layer id="14" name="1154" precision="FP32" type="Reshape">
			<input>
				<port id="0">
					<dim>1</dim>
					<dim>8</dim>
					<dim>256</dim>
					<dim>512</dim>
				</port>
				<port id="1">
					<dim>5</dim>
				</port>
			</input>
			<output>
				<port id="2">
					<dim>1</dim>
					<dim>4</dim>
					<dim>2</dim>
					<dim>256</dim>
					<dim>512</dim>
				</port>
			</output>
		</layer>
		<layer id="15" name="1155" precision="FP32" type="Permute">
			<data order="0,2,1,3,4"/>
			<input>
				<port id="0">
					<dim>1</dim>
					<dim>4</dim>
					<dim>2</dim>
					<dim>256</dim>
					<dim>512</dim>
				</port>
			</input>
			<output>
				<port id="1">
					<dim>1</dim>
					<dim>2</dim>
					<dim>4</dim>
					<dim>256</dim>
					<dim>512</dim>
				</port>
			</output>
		</layer>
		<layer id="16" name="1160/Output_0/Data__const" precision="I32" type="Const">
			<output>
				<port id="1">
					<dim>4</dim>
				</port>
			</output>
			<blobs>
				<custom offset="944" size="16"/>
			</blobs>
		</layer>
		<layer id="17" name="1161" precision="FP32" type="Reshape">
			<input>
				<port id="0">
					<dim>1</dim>
					<dim>2</dim>
					<dim>4</dim>
					<dim>256</dim>
					<dim>512</dim>
				</port>
				<port id="1">
					<dim>4</dim>
				</port>
			</input>
			<output>
				<port id="2">
					<dim>1</dim>
					<dim>8</dim>
					<dim>256</dim>
					<dim>512</dim>
				</port>
			</output>
		</layer>
		<layer id="18" name="1162" precision="FP32" type="PReLU">
			<data channel_shared="1"/>
			<input>
				<port id="0">
					<dim>1</dim>
					<dim>8</dim>
					<dim>256</dim>
					<dim>512</dim>
				</port>
			</input>
			<output>
				<port id="2">
					<dim>1</dim>
					<dim>8</dim>
					<dim>256</dim>
					<dim>512</dim>
				</port>
			</output>
			<blobs>
				<weights offset="960" size="4"/>
			</blobs>
		</layer>
		<layer id="19" name="1163" precision="FP32" type="Convolution">
			<data dilations="1,1" group="2" kernel="1,1" output="8" pads_begin="0,0" pads_end="0,0" strides="1,1"/>
			<input>
				<port id="0">
					<dim>1</dim>
					<dim>8</dim>
					<dim>256</dim>
					<dim>512</dim>
				</port>
			</input>
			<output>
				<port id="3">
					<dim>1</dim>
					<dim>8</dim>
					<dim>256</dim>
					<dim>512</dim>
				</port>
			</output>
			<blobs>
				<weights offset="964" size="128"/>
				<biases offset="1092" size="32"/>
			</blobs>
		</layer>
		<layer id="20" name="1165" precision="FP32" type="Eltwise">
			<data operation="sum"/>
			<input>
				<port id="0">
					<dim>1</dim>
					<dim>8</dim>
					<dim>256</dim>
					<dim>512</dim>
				</port>
				<port id="1">
					<dim>1</dim>
					<dim>8</dim>
					<dim>256</dim>
					<dim>512</dim>
				</port>
			</input>
			<output>
				<port id="2">
					<dim>1</dim>
					<dim>8</dim>
					<dim>256</dim>
					<dim>512</dim>
				</port>
			</output>
		</layer>
		<layer id="21" name="1166" precision="FP32" type="Pooling">
			<data exclude-pad="true" kernel="2,2" pads_begin="0,0" pads_end="0,0" pool-method="max" rounding_type="floor" strides="2,2"/>
			<input>
				<port id="0">
					<dim>1</dim>
					<dim>8</dim>
					<dim>256</dim>
					<dim>512</dim>
				</port>
			</input>
			<output>
				<port id="1">
					<dim>1</dim>
					<dim>8</dim>
					<dim>128</dim>
					<dim>256</dim>
				</port>
			</output>
		</layer>
		<layer id="22" name="1167" precision="FP32" type="Convolution">
			<data dilations="1,1" group="1" kernel="1,1" output="4" pads_begin="0,0" pads_end="0,0" strides="1,1"/>
			<input>
				<port id="0">
					<dim>1</dim>
					<dim>8</dim>
					<dim>128</dim>
					<dim>256</dim>
				</port>
			</input>
			<output>
				<port id="3">
					<dim>1</dim>
					<dim>4</dim>
					<dim>128</dim>
					<dim>256</dim>
				</port>
			</output>
			<blobs>
				<weights offset="1124" size="128"/>
				<biases offset="1252" size="16"/>
			</blobs>
		</layer>
		<layer id="23" name="1169" precision="FP32" type="Convolution">
			<data dilations="1,1" group="2" kernel="3,3" output="2" pads_begin="1,1" pads_end="1,1" strides="1,1"/>
			<input>
				<port id="0">
					<dim>1</dim>
					<dim>4</dim>
					<dim>128</dim>
					<dim>256</dim>
				</port>
			</input>
			<output>
				<port id="3">
					<dim>1</dim>
					<dim>2</dim>
					<dim>128</dim>
					<dim>256</dim>
				</port>
			</output>
			<blobs>
				<weights offset="1268" size="144"/>
				<biases offset="1412" size="8"/>
			</blobs>
		</layer>
		<layer id="24" name="1171" precision="FP32" type="Convolution">
			<data dilations="1,1" group="2" kernel="1,1" output="2" pads_begin="0,0" pads_end="0,0" strides="1,1"/>
			<input>
				<port id="0">
					<dim>1</dim>
					<dim>4</dim>
					<dim>128</dim>
					<dim>256</dim>
				</port>
			</input>
			<output>
				<port id="3">
					<dim>1</dim>
					<dim>2</dim>
					<dim>128</dim>
					<dim>256</dim>
				</port>
			</output>
			<blobs>
				<weights offset="1420" size="16"/>
				<biases offset="1436" size="8"/>
			</blobs>
		</layer>
		<layer id="25" name="1173" precision="FP32" type="Convolution">
			<data dilations="1,1" group="2" kernel="3,1" output="2" pads_begin="1,0" pads_end="1,0" strides="1,1"/>
			<input>
				<port id="0">
					<dim>1</dim>
					<dim>4</dim>
					<dim>128</dim>
					<dim>256</dim>
				</port>
			</input>
			<output>
				<port id="3">
					<dim>1</dim>
					<dim>2</dim>
					<dim>128</dim>
					<dim>256</dim>
				</port>
			</output>
			<blobs>
				<weights offset="1444" size="48"/>
				<biases offset="1492" size="8"/>
			</blobs>
		</layer>
		<layer id="26" name="1175" precision="FP32" type="Convolution">
			<data dilations="1,1" group="2" kernel="1,3" output="2" pads_begin="0,1" pads_end="0,1" strides="1,1"/>
			<input>
				<port id="0">
					<dim>1</dim>
					<dim>2</dim>
					<dim>128</dim>
					<dim>256</dim>
				</port>
			</input>
			<output>
				<port id="3">
					<dim>1</dim>
					<dim>2</dim>
					<dim>128</dim>
					<dim>256</dim>
				</port>
			</output>
			<blobs>
				<weights offset="1500" size="24"/>
				<biases offset="1524" size="8"/>
			</blobs>
		</layer>
		<layer id="27" name="1177" precision="FP32" type="Convolution">
			<data dilations="1,1" group="2" kernel="1,3" output="2" pads_begin="0,1" pads_end="0,1" strides="1,1"/>
			<input>
				<port id="0">
					<dim>1</dim>
					<dim>4</dim>
					<dim>128</dim>
					<dim>256</dim>
				</port>
			</input>
			<output>
				<port id="3">
					<dim>1</dim>
					<dim>2</dim>
					<dim>128</dim>
					<dim>256</dim>
				</port>
			</output>
			<blobs>
				<weights offset="1532" size="48"/>
				<biases offset="1580" size="8"/>
			</blobs>
		</layer>
		<layer id="28" name="1179" precision="FP32" type="Convolution">
			<data dilations="1,1" group="2" kernel="3,1" output="2" pads_begin="1,0" pads_end="1,0" strides="1,1"/>
			<input>
				<port id="0">
					<dim>1</dim>
					<dim>2</dim>
					<dim>128</dim>
					<dim>256</dim>
				</port>
			</input>
			<output>
				<port id="3">
					<dim>1</dim>
					<dim>2</dim>
					<dim>128</dim>
					<dim>256</dim>
				</port>
			</output>
			<blobs>
				<weights offset="1588" size="24"/>
				<biases offset="1612" size="8"/>
			</blobs>
		</layer>
		<layer id="29" name="1181" precision="FP32" type="Concat">
			<data axis="1"/>
			<input>
				<port id="0">
					<dim>1</dim>
					<dim>2</dim>
					<dim>128</dim>
					<dim>256</dim>
				</port>
				<port id="1">
					<dim>1</dim>
					<dim>2</dim>
					<dim>128</dim>
					<dim>256</dim>
				</port>
				<port id="2">
					<dim>1</dim>
					<dim>2</dim>
					<dim>128</dim>
					<dim>256</dim>
				</port>
				<port id="3">
					<dim>1</dim>
					<dim>2</dim>
					<dim>128</dim>
					<dim>256</dim>
				</port>
				<port id="4">
					<dim>1</dim>
					<dim>8</dim>
					<dim>128</dim>
					<dim>256</dim>
				</port>
			</input>
			<output>
				<port id="5">
					<dim>1</dim>
					<dim>16</dim>
					<dim>128</dim>
					<dim>256</dim>
				</port>
			</output>
		</layer>
		<layer id="30" name="1202/Output_0/Data__const" precision="I32" type="Const">
			<output>
				<port id="1">
					<dim>5</dim>
				</port>
			</output>
			<blobs>
				<custom offset="1620" size="20"/>
			</blobs>
		</layer>
		<layer id="31" name="1203" precision="FP32" type="Reshape">
			<input>
				<port id="0">
					<dim>1</dim>
					<dim>16</dim>
					<dim>128</dim>
					<dim>256</dim>
				</port>
				<port id="1">
					<dim>5</dim>
				</port>
			</input>
			<output>
				<port id="2">
					<dim>1</dim>
					<dim>4</dim>
					<dim>4</dim>
					<dim>128</dim>
					<dim>256</dim>
				</port>
			</output>
		</layer>
		<layer id="32" name="1204" precision="FP32" type="Permute">
			<data order="0,2,1,3,4"/>
			<input>
				<port id="0">
					<dim>1</dim>
					<dim>4</dim>
					<dim>4</dim>
					<dim>128</dim>
					<dim>256</dim>
				</port>
			</input>
			<output>
				<port id="1">
					<dim>1</dim>
					<dim>4</dim>
					<dim>4</dim>
					<dim>128</dim>
					<dim>256</dim>
				</port>
			</output>
		</layer>
		<layer id="33" name="1209/Output_0/Data__const" precision="I32" type="Const">
			<output>
				<port id="1">
					<dim>4</dim>
				</port>
			</output>
			<blobs>
				<custom offset="1640" size="16"/>
			</blobs>
		</layer>
		<layer id="34" name="1210" precision="FP32" type="Reshape">
			<input>
				<port id="0">
					<dim>1</dim>
					<dim>4</dim>
					<dim>4</dim>
					<dim>128</dim>
					<dim>256</dim>
				</port>
				<port id="1">
					<dim>4</dim>
				</port>
			</input>
			<output>
				<port id="2">
					<dim>1</dim>
					<dim>16</dim>
					<dim>128</dim>
					<dim>256</dim>
				</port>
			</output>
		</layer>
		<layer id="35" name="1211" precision="FP32" type="PReLU">
			<data channel_shared="1"/>
			<input>
				<port id="0">
					<dim>1</dim>
					<dim>16</dim>
					<dim>128</dim>
					<dim>256</dim>
				</port>
			</input>
			<output>
				<port id="2">
					<dim>1</dim>
					<dim>16</dim>
					<dim>128</dim>
					<dim>256</dim>
				</port>
			</output>
			<blobs>
				<weights offset="1656" size="4"/>
			</blobs>
		</layer>
		<layer id="36" name="1212" precision="FP32" type="Convolution">
			<data dilations="1,1" group="4" kernel="1,1" output="16" pads_begin="0,0" pads_end="0,0" strides="1,1"/>
			<input>
				<port id="0">
					<dim>1</dim>
					<dim>16</dim>
					<dim>128</dim>
					<dim>256</dim>
				</port>
			</input>
			<output>
				<port id="3">
					<dim>1</dim>
					<dim>16</dim>
					<dim>128</dim>
					<dim>256</dim>
				</port>
			</output>
			<blobs>
				<weights offset="1660" size="256"/>
				<biases offset="1916" size="64"/>
			</blobs>
		</layer>
		<layer id="37" name="1213" precision="FP32" type="Convolution">
			<data dilations="1,1" group="1" kernel="1,1" output="4" pads_begin="0,0" pads_end="0,0" strides="1,1"/>
			<input>
				<port id="0">
					<dim>1</dim>
					<dim>16</dim>
					<dim>128</dim>
					<dim>256</dim>
				</port>
			</input>
			<output>
				<port id="3">
					<dim>1</dim>
					<dim>4</dim>
					<dim>128</dim>
					<dim>256</dim>
				</port>
			</output>
			<blobs>
				<weights offset="1980" size="256"/>
				<biases offset="2236" size="16"/>
			</blobs>
		</layer>
		<layer id="38" name="1215" precision="FP32" type="Convolution">
			<data dilations="1,1" group="4" kernel="3,3" output="4" pads_begin="1,1" pads_end="1,1" strides="1,1"/>
			<input>
				<port id="0">
					<dim>1</dim>
					<dim>4</dim>
					<dim>128</dim>
					<dim>256</dim>
				</port>
			</input>
			<output>
				<port id="3">
					<dim>1</dim>
					<dim>4</dim>
					<dim>128</dim>
					<dim>256</dim>
				</port>
			</output>
			<blobs>
				<weights offset="2252" size="144"/>
				<biases offset="2396" size="16"/>
			</blobs>
		</layer>
		<layer id="39" name="1217" precision="FP32" type="Convolution">
			<data dilations="1,1" group="4" kernel="3,3" output="4" pads_begin="1,1" pads_end="1,1" strides="1,1"/>
			<input>
				<port id="0">
					<dim>1</dim>
					<dim>4</dim>
					<dim>128</dim>
					<dim>256</dim>
				</port>
			</input>
			<output>
				<port id="3">
					<dim>1</dim>
					<dim>4</dim>
					<dim>128</dim>
					<dim>256</dim>
				</port>
			</output>
			<blobs>
				<weights offset="2412" size="144"/>
				<biases offset="2556" size="16"/>
			</blobs>
		</layer>
		<layer id="40" name="1219" precision="FP32" type="Convolution">
			<data dilations="1,1" group="4" kernel="3,1" output="4" pads_begin="1,0" pads_end="1,0" strides="1,1"/>
			<input>
				<port id="0">
					<dim>1</dim>
					<dim>4</dim>
					<dim>128</dim>
					<dim>256</dim>
				</port>
			</input>
			<output>
				<port id="3">
					<dim>1</dim>
					<dim>4</dim>
					<dim>128</dim>
					<dim>256</dim>
				</port>
			</output>
			<blobs>
				<weights offset="2572" size="48"/>
				<biases offset="2620" size="16"/>
			</blobs>
		</layer>
		<layer id="41" name="1221" precision="FP32" type="Convolution">
			<data dilations="1,1" group="4" kernel="1,3" output="4" pads_begin="0,1" pads_end="0,1" strides="1,1"/>
			<input>
				<port id="0">
					<dim>1</dim>
					<dim>4</dim>
					<dim>128</dim>
					<dim>256</dim>
				</port>
			</input>
			<output>
				<port id="3">
					<dim>1</dim>
					<dim>4</dim>
					<dim>128</dim>
					<dim>256</dim>
				</port>
			</output>
			<blobs>
				<weights offset="2636" size="48"/>
				<biases offset="2684" size="16"/>
			</blobs>
		</layer>
		<layer id="42" name="1223" precision="FP32" type="Convolution">
			<data dilations="1,1" group="4" kernel="1,3" output="4" pads_begin="0,1" pads_end="0,1" strides="1,1"/>
			<input>
				<port id="0">
					<dim>1</dim>
					<dim>4</dim>
					<dim>128</dim>
					<dim>256</dim>
				</port>
			</input>
			<output>
				<port id="3">
					<dim>1</dim>
					<dim>4</dim>
					<dim>128</dim>
					<dim>256</dim>
				</port>
			</output>
			<blobs>
				<weights offset="2700" size="48"/>
				<biases offset="2748" size="16"/>
			</blobs>
		</layer>
		<layer id="43" name="1225" precision="FP32" type="Convolution">
			<data dilations="1,1" group="4" kernel="3,1" output="4" pads_begin="1,0" pads_end="1,0" strides="1,1"/>
			<input>
				<port id="0">
					<dim>1</dim>
					<dim>4</dim>
					<dim>128</dim>
					<dim>256</dim>
				</port>
			</input>
			<output>
				<port id="3">
					<dim>1</dim>
					<dim>4</dim>
					<dim>128</dim>
					<dim>256</dim>
				</port>
			</output>
			<blobs>
				<weights offset="2764" size="48"/>
				<biases offset="2812" size="16"/>
			</blobs>
		</layer>
		<layer id="44" name="1227" precision="FP32" type="Concat">
			<data axis="1"/>
			<input>
				<port id="0">
					<dim>1</dim>
					<dim>4</dim>
					<dim>128</dim>
					<dim>256</dim>
				</port>
				<port id="1">
					<dim>1</dim>
					<dim>4</dim>
					<dim>128</dim>
					<dim>256</dim>
				</port>
				<port id="2">
					<dim>1</dim>
					<dim>4</dim>
					<dim>128</dim>
					<dim>256</dim>
				</port>
				<port id="3">
					<dim>1</dim>
					<dim>4</dim>
					<dim>128</dim>
					<dim>256</dim>
				</port>
			</input>
			<output>
				<port id="4">
					<dim>1</dim>
					<dim>16</dim>
					<dim>128</dim>
					<dim>256</dim>
				</port>
			</output>
		</layer>
		<layer id="45" name="1248/Output_0/Data__const" precision="I32" type="Const">
			<output>
				<port id="1">
					<dim>5</dim>
				</port>
			</output>
			<blobs>
				<custom offset="1620" size="20"/>
			</blobs>
		</layer>
		<layer id="46" name="1249" precision="FP32" type="Reshape">
			<input>
				<port id="0">
					<dim>1</dim>
					<dim>16</dim>
					<dim>128</dim>
					<dim>256</dim>
				</port>
				<port id="1">
					<dim>5</dim>
				</port>
			</input>
			<output>
				<port id="2">
					<dim>1</dim>
					<dim>4</dim>
					<dim>4</dim>
					<dim>128</dim>
					<dim>256</dim>
				</port>
			</output>
		</layer>
		<layer id="47" name="1250" precision="FP32" type="Permute">
			<data order="0,2,1,3,4"/>
			<input>
				<port id="0">
					<dim>1</dim>
					<dim>4</dim>
					<dim>4</dim>
					<dim>128</dim>
					<dim>256</dim>
				</port>
			</input>
			<output>
				<port id="1">
					<dim>1</dim>
					<dim>4</dim>
					<dim>4</dim>
					<dim>128</dim>
					<dim>256</dim>
				</port>
			</output>
		</layer>
		<layer id="48" name="1255/Output_0/Data__const" precision="I32" type="Const">
			<output>
				<port id="1">
					<dim>4</dim>
				</port>
			</output>
			<blobs>
				<custom offset="1640" size="16"/>
			</blobs>
		</layer>
		<layer id="49" name="1256" precision="FP32" type="Reshape">
			<input>
				<port id="0">
					<dim>1</dim>
					<dim>4</dim>
					<dim>4</dim>
					<dim>128</dim>
					<dim>256</dim>
				</port>
				<port id="1">
					<dim>4</dim>
				</port>
			</input>
			<output>
				<port id="2">
					<dim>1</dim>
					<dim>16</dim>
					<dim>128</dim>
					<dim>256</dim>
				</port>
			</output>
		</layer>
		<layer id="50" name="1257" precision="FP32" type="PReLU">
			<data channel_shared="1"/>
			<input>
				<port id="0">
					<dim>1</dim>
					<dim>16</dim>
					<dim>128</dim>
					<dim>256</dim>
				</port>
			</input>
			<output>
				<port id="2">
					<dim>1</dim>
					<dim>16</dim>
					<dim>128</dim>
					<dim>256</dim>
				</port>
			</output>
			<blobs>
				<weights offset="2828" size="4"/>
			</blobs>
		</layer>
		<layer id="51" name="1258" precision="FP32" type="Convolution">
			<data dilations="1,1" group="4" kernel="1,1" output="16" pads_begin="0,0" pads_end="0,0" strides="1,1"/>
			<input>
				<port id="0">
					<dim>1</dim>
					<dim>16</dim>
					<dim>128</dim>
					<dim>256</dim>
				</port>
			</input>
			<output>
				<port id="3">
					<dim>1</dim>
					<dim>16</dim>
					<dim>128</dim>
					<dim>256</dim>
				</port>
			</output>
			<blobs>
				<weights offset="2832" size="256"/>
				<biases offset="3088" size="64"/>
			</blobs>
		</layer>
		<layer id="52" name="1260" precision="FP32" type="Eltwise">
			<data operation="sum"/>
			<input>
				<port id="0">
					<dim>1</dim>
					<dim>16</dim>
					<dim>128</dim>
					<dim>256</dim>
				</port>
				<port id="1">
					<dim>1</dim>
					<dim>16</dim>
					<dim>128</dim>
					<dim>256</dim>
				</port>
			</input>
			<output>
				<port id="2">
					<dim>1</dim>
					<dim>16</dim>
					<dim>128</dim>
					<dim>256</dim>
				</port>
			</output>
		</layer>
		<layer id="53" name="1261" precision="FP32" type="Convolution">
			<data dilations="1,1" group="1" kernel="1,1" output="4" pads_begin="0,0" pads_end="0,0" strides="1,1"/>
			<input>
				<port id="0">
					<dim>1</dim>
					<dim>16</dim>
					<dim>128</dim>
					<dim>256</dim>
				</port>
			</input>
			<output>
				<port id="3">
					<dim>1</dim>
					<dim>4</dim>
					<dim>128</dim>
					<dim>256</dim>
				</port>
			</output>
			<blobs>
				<weights offset="3152" size="256"/>
				<biases offset="3408" size="16"/>
			</blobs>
		</layer>
		<layer id="54" name="1263" precision="FP32" type="Convolution">
			<data dilations="1,1" group="4" kernel="3,3" output="4" pads_begin="1,1" pads_end="1,1" strides="1,1"/>
			<input>
				<port id="0">
					<dim>1</dim>
					<dim>4</dim>
					<dim>128</dim>
					<dim>256</dim>
				</port>
			</input>
			<output>
				<port id="3">
					<dim>1</dim>
					<dim>4</dim>
					<dim>128</dim>
					<dim>256</dim>
				</port>
			</output>
			<blobs>
				<weights offset="3424" size="144"/>
				<biases offset="3568" size="16"/>
			</blobs>
		</layer>
		<layer id="55" name="1265" precision="FP32" type="Convolution">
			<data dilations="1,1" group="4" kernel="3,3" output="4" pads_begin="1,1" pads_end="1,1" strides="1,1"/>
			<input>
				<port id="0">
					<dim>1</dim>
					<dim>4</dim>
					<dim>128</dim>
					<dim>256</dim>
				</port>
			</input>
			<output>
				<port id="3">
					<dim>1</dim>
					<dim>4</dim>
					<dim>128</dim>
					<dim>256</dim>
				</port>
			</output>
			<blobs>
				<weights offset="3584" size="144"/>
				<biases offset="3728" size="16"/>
			</blobs>
		</layer>
		<layer id="56" name="1267" precision="FP32" type="Convolution">
			<data dilations="1,1" group="4" kernel="3,1" output="4" pads_begin="1,0" pads_end="1,0" strides="1,1"/>
			<input>
				<port id="0">
					<dim>1</dim>
					<dim>4</dim>
					<dim>128</dim>
					<dim>256</dim>
				</port>
			</input>
			<output>
				<port id="3">
					<dim>1</dim>
					<dim>4</dim>
					<dim>128</dim>
					<dim>256</dim>
				</port>
			</output>
			<blobs>
				<weights offset="3744" size="48"/>
				<biases offset="3792" size="16"/>
			</blobs>
		</layer>
		<layer id="57" name="1269" precision="FP32" type="Convolution">
			<data dilations="1,1" group="4" kernel="1,3" output="4" pads_begin="0,1" pads_end="0,1" strides="1,1"/>
			<input>
				<port id="0">
					<dim>1</dim>
					<dim>4</dim>
					<dim>128</dim>
					<dim>256</dim>
				</port>
			</input>
			<output>
				<port id="3">
					<dim>1</dim>
					<dim>4</dim>
					<dim>128</dim>
					<dim>256</dim>
				</port>
			</output>
			<blobs>
				<weights offset="3808" size="48"/>
				<biases offset="3856" size="16"/>
			</blobs>
		</layer>
		<layer id="58" name="1271" precision="FP32" type="Convolution">
			<data dilations="1,1" group="4" kernel="1,3" output="4" pads_begin="0,1" pads_end="0,1" strides="1,1"/>
			<input>
				<port id="0">
					<dim>1</dim>
					<dim>4</dim>
					<dim>128</dim>
					<dim>256</dim>
				</port>
			</input>
			<output>
				<port id="3">
					<dim>1</dim>
					<dim>4</dim>
					<dim>128</dim>
					<dim>256</dim>
				</port>
			</output>
			<blobs>
				<weights offset="3872" size="48"/>
				<biases offset="3920" size="16"/>
			</blobs>
		</layer>
		<layer id="59" name="1273" precision="FP32" type="Convolution">
			<data dilations="1,1" group="4" kernel="3,1" output="4" pads_begin="1,0" pads_end="1,0" strides="1,1"/>
			<input>
				<port id="0">
					<dim>1</dim>
					<dim>4</dim>
					<dim>128</dim>
					<dim>256</dim>
				</port>
			</input>
			<output>
				<port id="3">
					<dim>1</dim>
					<dim>4</dim>
					<dim>128</dim>
					<dim>256</dim>
				</port>
			</output>
			<blobs>
				<weights offset="3936" size="48"/>
				<biases offset="3984" size="16"/>
			</blobs>
		</layer>
		<layer id="60" name="1275" precision="FP32" type="Concat">
			<data axis="1"/>
			<input>
				<port id="0">
					<dim>1</dim>
					<dim>4</dim>
					<dim>128</dim>
					<dim>256</dim>
				</port>
				<port id="1">
					<dim>1</dim>
					<dim>4</dim>
					<dim>128</dim>
					<dim>256</dim>
				</port>
				<port id="2">
					<dim>1</dim>
					<dim>4</dim>
					<dim>128</dim>
					<dim>256</dim>
				</port>
				<port id="3">
					<dim>1</dim>
					<dim>4</dim>
					<dim>128</dim>
					<dim>256</dim>
				</port>
			</input>
			<output>
				<port id="4">
					<dim>1</dim>
					<dim>16</dim>
					<dim>128</dim>
					<dim>256</dim>
				</port>
			</output>
		</layer>
		<layer id="61" name="1296/Output_0/Data__const" precision="I32" type="Const">
			<output>
				<port id="1">
					<dim>5</dim>
				</port>
			</output>
			<blobs>
				<custom offset="1620" size="20"/>
			</blobs>
		</layer>
		<layer id="62" name="1297" precision="FP32" type="Reshape">
			<input>
				<port id="0">
					<dim>1</dim>
					<dim>16</dim>
					<dim>128</dim>
					<dim>256</dim>
				</port>
				<port id="1">
					<dim>5</dim>
				</port>
			</input>
			<output>
				<port id="2">
					<dim>1</dim>
					<dim>4</dim>
					<dim>4</dim>
					<dim>128</dim>
					<dim>256</dim>
				</port>
			</output>
		</layer>
		<layer id="63" name="1298" precision="FP32" type="Permute">
			<data order="0,2,1,3,4"/>
			<input>
				<port id="0">
					<dim>1</dim>
					<dim>4</dim>
					<dim>4</dim>
					<dim>128</dim>
					<dim>256</dim>
				</port>
			</input>
			<output>
				<port id="1">
					<dim>1</dim>
					<dim>4</dim>
					<dim>4</dim>
					<dim>128</dim>
					<dim>256</dim>
				</port>
			</output>
		</layer>
		<layer id="64" name="1303/Output_0/Data__const" precision="I32" type="Const">
			<output>
				<port id="1">
					<dim>4</dim>
				</port>
			</output>
			<blobs>
				<custom offset="1640" size="16"/>
			</blobs>
		</layer>
		<layer id="65" name="1304" precision="FP32" type="Reshape">
			<input>
				<port id="0">
					<dim>1</dim>
					<dim>4</dim>
					<dim>4</dim>
					<dim>128</dim>
					<dim>256</dim>
				</port>
				<port id="1">
					<dim>4</dim>
				</port>
			</input>
			<output>
				<port id="2">
					<dim>1</dim>
					<dim>16</dim>
					<dim>128</dim>
					<dim>256</dim>
				</port>
			</output>
		</layer>
		<layer id="66" name="1305" precision="FP32" type="PReLU">
			<data channel_shared="1"/>
			<input>
				<port id="0">
					<dim>1</dim>
					<dim>16</dim>
					<dim>128</dim>
					<dim>256</dim>
				</port>
			</input>
			<output>
				<port id="2">
					<dim>1</dim>
					<dim>16</dim>
					<dim>128</dim>
					<dim>256</dim>
				</port>
			</output>
			<blobs>
				<weights offset="4000" size="4"/>
			</blobs>
		</layer>
		<layer id="67" name="1306" precision="FP32" type="Convolution">
			<data dilations="1,1" group="4" kernel="1,1" output="16" pads_begin="0,0" pads_end="0,0" strides="1,1"/>
			<input>
				<port id="0">
					<dim>1</dim>
					<dim>16</dim>
					<dim>128</dim>
					<dim>256</dim>
				</port>
			</input>
			<output>
				<port id="3">
					<dim>1</dim>
					<dim>16</dim>
					<dim>128</dim>
					<dim>256</dim>
				</port>
			</output>
			<blobs>
				<weights offset="4004" size="256"/>
				<biases offset="4260" size="64"/>
			</blobs>
		</layer>
		<layer id="68" name="1308" precision="FP32" type="Eltwise">
			<data operation="sum"/>
			<input>
				<port id="0">
					<dim>1</dim>
					<dim>16</dim>
					<dim>128</dim>
					<dim>256</dim>
				</port>
				<port id="1">
					<dim>1</dim>
					<dim>16</dim>
					<dim>128</dim>
					<dim>256</dim>
				</port>
			</input>
			<output>
				<port id="2">
					<dim>1</dim>
					<dim>16</dim>
					<dim>128</dim>
					<dim>256</dim>
				</port>
			</output>
		</layer>
		<layer id="69" name="1309" precision="FP32" type="Convolution">
			<data dilations="1,1" group="1" kernel="1,1" output="4" pads_begin="0,0" pads_end="0,0" strides="1,1"/>
			<input>
				<port id="0">
					<dim>1</dim>
					<dim>16</dim>
					<dim>128</dim>
					<dim>256</dim>
				</port>
			</input>
			<output>
				<port id="3">
					<dim>1</dim>
					<dim>4</dim>
					<dim>128</dim>
					<dim>256</dim>
				</port>
			</output>
			<blobs>
				<weights offset="4324" size="256"/>
				<biases offset="4580" size="16"/>
			</blobs>
		</layer>
		<layer id="70" name="1311" precision="FP32" type="Convolution">
			<data dilations="1,1" group="4" kernel="3,3" output="4" pads_begin="1,1" pads_end="1,1" strides="1,1"/>
			<input>
				<port id="0">
					<dim>1</dim>
					<dim>4</dim>
					<dim>128</dim>
					<dim>256</dim>
				</port>
			</input>
			<output>
				<port id="3">
					<dim>1</dim>
					<dim>4</dim>
					<dim>128</dim>
					<dim>256</dim>
				</port>
			</output>
			<blobs>
				<weights offset="4596" size="144"/>
				<biases offset="4740" size="16"/>
			</blobs>
		</layer>
		<layer id="71" name="1313" precision="FP32" type="Convolution">
			<data dilations="1,1" group="4" kernel="3,3" output="4" pads_begin="1,1" pads_end="1,1" strides="1,1"/>
			<input>
				<port id="0">
					<dim>1</dim>
					<dim>4</dim>
					<dim>128</dim>
					<dim>256</dim>
				</port>
			</input>
			<output>
				<port id="3">
					<dim>1</dim>
					<dim>4</dim>
					<dim>128</dim>
					<dim>256</dim>
				</port>
			</output>
			<blobs>
				<weights offset="4756" size="144"/>
				<biases offset="4900" size="16"/>
			</blobs>
		</layer>
		<layer id="72" name="1315" precision="FP32" type="Convolution">
			<data dilations="1,1" group="4" kernel="3,1" output="4" pads_begin="1,0" pads_end="1,0" strides="1,1"/>
			<input>
				<port id="0">
					<dim>1</dim>
					<dim>4</dim>
					<dim>128</dim>
					<dim>256</dim>
				</port>
			</input>
			<output>
				<port id="3">
					<dim>1</dim>
					<dim>4</dim>
					<dim>128</dim>
					<dim>256</dim>
				</port>
			</output>
			<blobs>
				<weights offset="4916" size="48"/>
				<biases offset="4964" size="16"/>
			</blobs>
		</layer>
		<layer id="73" name="1317" precision="FP32" type="Convolution">
			<data dilations="1,1" group="4" kernel="1,3" output="4" pads_begin="0,1" pads_end="0,1" strides="1,1"/>
			<input>
				<port id="0">
					<dim>1</dim>
					<dim>4</dim>
					<dim>128</dim>
					<dim>256</dim>
				</port>
			</input>
			<output>
				<port id="3">
					<dim>1</dim>
					<dim>4</dim>
					<dim>128</dim>
					<dim>256</dim>
				</port>
			</output>
			<blobs>
				<weights offset="4980" size="48"/>
				<biases offset="5028" size="16"/>
			</blobs>
		</layer>
		<layer id="74" name="1319" precision="FP32" type="Convolution">
			<data dilations="1,1" group="4" kernel="1,3" output="4" pads_begin="0,1" pads_end="0,1" strides="1,1"/>
			<input>
				<port id="0">
					<dim>1</dim>
					<dim>4</dim>
					<dim>128</dim>
					<dim>256</dim>
				</port>
			</input>
			<output>
				<port id="3">
					<dim>1</dim>
					<dim>4</dim>
					<dim>128</dim>
					<dim>256</dim>
				</port>
			</output>
			<blobs>
				<weights offset="5044" size="48"/>
				<biases offset="5092" size="16"/>
			</blobs>
		</layer>
		<layer id="75" name="1321" precision="FP32" type="Convolution">
			<data dilations="1,1" group="4" kernel="3,1" output="4" pads_begin="1,0" pads_end="1,0" strides="1,1"/>
			<input>
				<port id="0">
					<dim>1</dim>
					<dim>4</dim>
					<dim>128</dim>
					<dim>256</dim>
				</port>
			</input>
			<output>
				<port id="3">
					<dim>1</dim>
					<dim>4</dim>
					<dim>128</dim>
					<dim>256</dim>
				</port>
			</output>
			<blobs>
				<weights offset="5108" size="48"/>
				<biases offset="5156" size="16"/>
			</blobs>
		</layer>
		<layer id="76" name="1323" precision="FP32" type="Concat">
			<data axis="1"/>
			<input>
				<port id="0">
					<dim>1</dim>
					<dim>4</dim>
					<dim>128</dim>
					<dim>256</dim>
				</port>
				<port id="1">
					<dim>1</dim>
					<dim>4</dim>
					<dim>128</dim>
					<dim>256</dim>
				</port>
				<port id="2">
					<dim>1</dim>
					<dim>4</dim>
					<dim>128</dim>
					<dim>256</dim>
				</port>
				<port id="3">
					<dim>1</dim>
					<dim>4</dim>
					<dim>128</dim>
					<dim>256</dim>
				</port>
			</input>
			<output>
				<port id="4">
					<dim>1</dim>
					<dim>16</dim>
					<dim>128</dim>
					<dim>256</dim>
				</port>
			</output>
		</layer>
		<layer id="77" name="1344/Output_0/Data__const" precision="I32" type="Const">
			<output>
				<port id="1">
					<dim>5</dim>
				</port>
			</output>
			<blobs>
				<custom offset="1620" size="20"/>
			</blobs>
		</layer>
		<layer id="78" name="1345" precision="FP32" type="Reshape">
			<input>
				<port id="0">
					<dim>1</dim>
					<dim>16</dim>
					<dim>128</dim>
					<dim>256</dim>
				</port>
				<port id="1">
					<dim>5</dim>
				</port>
			</input>
			<output>
				<port id="2">
					<dim>1</dim>
					<dim>4</dim>
					<dim>4</dim>
					<dim>128</dim>
					<dim>256</dim>
				</port>
			</output>
		</layer>
		<layer id="79" name="1346" precision="FP32" type="Permute">
			<data order="0,2,1,3,4"/>
			<input>
				<port id="0">
					<dim>1</dim>
					<dim>4</dim>
					<dim>4</dim>
					<dim>128</dim>
					<dim>256</dim>
				</port>
			</input>
			<output>
				<port id="1">
					<dim>1</dim>
					<dim>4</dim>
					<dim>4</dim>
					<dim>128</dim>
					<dim>256</dim>
				</port>
			</output>
		</layer>
		<layer id="80" name="1351/Output_0/Data__const" precision="I32" type="Const">
			<output>
				<port id="1">
					<dim>4</dim>
				</port>
			</output>
			<blobs>
				<custom offset="1640" size="16"/>
			</blobs>
		</layer>
		<layer id="81" name="1352" precision="FP32" type="Reshape">
			<input>
				<port id="0">
					<dim>1</dim>
					<dim>4</dim>
					<dim>4</dim>
					<dim>128</dim>
					<dim>256</dim>
				</port>
				<port id="1">
					<dim>4</dim>
				</port>
			</input>
			<output>
				<port id="2">
					<dim>1</dim>
					<dim>16</dim>
					<dim>128</dim>
					<dim>256</dim>
				</port>
			</output>
		</layer>
		<layer id="82" name="1353" precision="FP32" type="PReLU">
			<data channel_shared="1"/>
			<input>
				<port id="0">
					<dim>1</dim>
					<dim>16</dim>
					<dim>128</dim>
					<dim>256</dim>
				</port>
			</input>
			<output>
				<port id="2">
					<dim>1</dim>
					<dim>16</dim>
					<dim>128</dim>
					<dim>256</dim>
				</port>
			</output>
			<blobs>
				<weights offset="5172" size="4"/>
			</blobs>
		</layer>
		<layer id="83" name="1354" precision="FP32" type="Convolution">
			<data dilations="1,1" group="4" kernel="1,1" output="16" pads_begin="0,0" pads_end="0,0" strides="1,1"/>
			<input>
				<port id="0">
					<dim>1</dim>
					<dim>16</dim>
					<dim>128</dim>
					<dim>256</dim>
				</port>
			</input>
			<output>
				<port id="3">
					<dim>1</dim>
					<dim>16</dim>
					<dim>128</dim>
					<dim>256</dim>
				</port>
			</output>
			<blobs>
				<weights offset="5176" size="256"/>
				<biases offset="5432" size="64"/>
			</blobs>
		</layer>
		<layer id="84" name="1356" precision="FP32" type="Eltwise">
			<data operation="sum"/>
			<input>
				<port id="0">
					<dim>1</dim>
					<dim>16</dim>
					<dim>128</dim>
					<dim>256</dim>
				</port>
				<port id="1">
					<dim>1</dim>
					<dim>16</dim>
					<dim>128</dim>
					<dim>256</dim>
				</port>
			</input>
			<output>
				<port id="2">
					<dim>1</dim>
					<dim>16</dim>
					<dim>128</dim>
					<dim>256</dim>
				</port>
			</output>
		</layer>
		<layer id="85" name="1357" precision="FP32" type="Convolution">
			<data dilations="1,1" group="1" kernel="1,1" output="4" pads_begin="0,0" pads_end="0,0" strides="1,1"/>
			<input>
				<port id="0">
					<dim>1</dim>
					<dim>16</dim>
					<dim>128</dim>
					<dim>256</dim>
				</port>
			</input>
			<output>
				<port id="3">
					<dim>1</dim>
					<dim>4</dim>
					<dim>128</dim>
					<dim>256</dim>
				</port>
			</output>
			<blobs>
				<weights offset="5496" size="256"/>
				<biases offset="5752" size="16"/>
			</blobs>
		</layer>
		<layer id="86" name="1359" precision="FP32" type="Convolution">
			<data dilations="1,1" group="4" kernel="3,3" output="4" pads_begin="1,1" pads_end="1,1" strides="1,1"/>
			<input>
				<port id="0">
					<dim>1</dim>
					<dim>4</dim>
					<dim>128</dim>
					<dim>256</dim>
				</port>
			</input>
			<output>
				<port id="3">
					<dim>1</dim>
					<dim>4</dim>
					<dim>128</dim>
					<dim>256</dim>
				</port>
			</output>
			<blobs>
				<weights offset="5768" size="144"/>
				<biases offset="5912" size="16"/>
			</blobs>
		</layer>
		<layer id="87" name="1361" precision="FP32" type="Convolution">
			<data dilations="1,1" group="4" kernel="3,3" output="4" pads_begin="1,1" pads_end="1,1" strides="1,1"/>
			<input>
				<port id="0">
					<dim>1</dim>
					<dim>4</dim>
					<dim>128</dim>
					<dim>256</dim>
				</port>
			</input>
			<output>
				<port id="3">
					<dim>1</dim>
					<dim>4</dim>
					<dim>128</dim>
					<dim>256</dim>
				</port>
			</output>
			<blobs>
				<weights offset="5928" size="144"/>
				<biases offset="6072" size="16"/>
			</blobs>
		</layer>
		<layer id="88" name="1363" precision="FP32" type="Convolution">
			<data dilations="1,1" group="4" kernel="3,1" output="4" pads_begin="1,0" pads_end="1,0" strides="1,1"/>
			<input>
				<port id="0">
					<dim>1</dim>
					<dim>4</dim>
					<dim>128</dim>
					<dim>256</dim>
				</port>
			</input>
			<output>
				<port id="3">
					<dim>1</dim>
					<dim>4</dim>
					<dim>128</dim>
					<dim>256</dim>
				</port>
			</output>
			<blobs>
				<weights offset="6088" size="48"/>
				<biases offset="6136" size="16"/>
			</blobs>
		</layer>
		<layer id="89" name="1365" precision="FP32" type="Convolution">
			<data dilations="1,1" group="4" kernel="1,3" output="4" pads_begin="0,1" pads_end="0,1" strides="1,1"/>
			<input>
				<port id="0">
					<dim>1</dim>
					<dim>4</dim>
					<dim>128</dim>
					<dim>256</dim>
				</port>
			</input>
			<output>
				<port id="3">
					<dim>1</dim>
					<dim>4</dim>
					<dim>128</dim>
					<dim>256</dim>
				</port>
			</output>
			<blobs>
				<weights offset="6152" size="48"/>
				<biases offset="6200" size="16"/>
			</blobs>
		</layer>
		<layer id="90" name="1367" precision="FP32" type="Convolution">
			<data dilations="1,1" group="4" kernel="1,3" output="4" pads_begin="0,1" pads_end="0,1" strides="1,1"/>
			<input>
				<port id="0">
					<dim>1</dim>
					<dim>4</dim>
					<dim>128</dim>
					<dim>256</dim>
				</port>
			</input>
			<output>
				<port id="3">
					<dim>1</dim>
					<dim>4</dim>
					<dim>128</dim>
					<dim>256</dim>
				</port>
			</output>
			<blobs>
				<weights offset="6216" size="48"/>
				<biases offset="6264" size="16"/>
			</blobs>
		</layer>
		<layer id="91" name="1369" precision="FP32" type="Convolution">
			<data dilations="1,1" group="4" kernel="3,1" output="4" pads_begin="1,0" pads_end="1,0" strides="1,1"/>
			<input>
				<port id="0">
					<dim>1</dim>
					<dim>4</dim>
					<dim>128</dim>
					<dim>256</dim>
				</port>
			</input>
			<output>
				<port id="3">
					<dim>1</dim>
					<dim>4</dim>
					<dim>128</dim>
					<dim>256</dim>
				</port>
			</output>
			<blobs>
				<weights offset="6280" size="48"/>
				<biases offset="6328" size="16"/>
			</blobs>
		</layer>
		<layer id="92" name="1371" precision="FP32" type="Concat">
			<data axis="1"/>
			<input>
				<port id="0">
					<dim>1</dim>
					<dim>4</dim>
					<dim>128</dim>
					<dim>256</dim>
				</port>
				<port id="1">
					<dim>1</dim>
					<dim>4</dim>
					<dim>128</dim>
					<dim>256</dim>
				</port>
				<port id="2">
					<dim>1</dim>
					<dim>4</dim>
					<dim>128</dim>
					<dim>256</dim>
				</port>
				<port id="3">
					<dim>1</dim>
					<dim>4</dim>
					<dim>128</dim>
					<dim>256</dim>
				</port>
			</input>
			<output>
				<port id="4">
					<dim>1</dim>
					<dim>16</dim>
					<dim>128</dim>
					<dim>256</dim>
				</port>
			</output>
		</layer>
		<layer id="93" name="1392/Output_0/Data__const" precision="I32" type="Const">
			<output>
				<port id="1">
					<dim>5</dim>
				</port>
			</output>
			<blobs>
				<custom offset="1620" size="20"/>
			</blobs>
		</layer>
		<layer id="94" name="1393" precision="FP32" type="Reshape">
			<input>
				<port id="0">
					<dim>1</dim>
					<dim>16</dim>
					<dim>128</dim>
					<dim>256</dim>
				</port>
				<port id="1">
					<dim>5</dim>
				</port>
			</input>
			<output>
				<port id="2">
					<dim>1</dim>
					<dim>4</dim>
					<dim>4</dim>
					<dim>128</dim>
					<dim>256</dim>
				</port>
			</output>
		</layer>
		<layer id="95" name="1394" precision="FP32" type="Permute">
			<data order="0,2,1,3,4"/>
			<input>
				<port id="0">
					<dim>1</dim>
					<dim>4</dim>
					<dim>4</dim>
					<dim>128</dim>
					<dim>256</dim>
				</port>
			</input>
			<output>
				<port id="1">
					<dim>1</dim>
					<dim>4</dim>
					<dim>4</dim>
					<dim>128</dim>
					<dim>256</dim>
				</port>
			</output>
		</layer>
		<layer id="96" name="1399/Output_0/Data__const" precision="I32" type="Const">
			<output>
				<port id="1">
					<dim>4</dim>
				</port>
			</output>
			<blobs>
				<custom offset="1640" size="16"/>
			</blobs>
		</layer>
		<layer id="97" name="1400" precision="FP32" type="Reshape">
			<input>
				<port id="0">
					<dim>1</dim>
					<dim>4</dim>
					<dim>4</dim>
					<dim>128</dim>
					<dim>256</dim>
				</port>
				<port id="1">
					<dim>4</dim>
				</port>
			</input>
			<output>
				<port id="2">
					<dim>1</dim>
					<dim>16</dim>
					<dim>128</dim>
					<dim>256</dim>
				</port>
			</output>
		</layer>
		<layer id="98" name="1401" precision="FP32" type="PReLU">
			<data channel_shared="1"/>
			<input>
				<port id="0">
					<dim>1</dim>
					<dim>16</dim>
					<dim>128</dim>
					<dim>256</dim>
				</port>
			</input>
			<output>
				<port id="2">
					<dim>1</dim>
					<dim>16</dim>
					<dim>128</dim>
					<dim>256</dim>
				</port>
			</output>
			<blobs>
				<weights offset="6344" size="4"/>
			</blobs>
		</layer>
		<layer id="99" name="1402" precision="FP32" type="Convolution">
			<data dilations="1,1" group="4" kernel="1,1" output="16" pads_begin="0,0" pads_end="0,0" strides="1,1"/>
			<input>
				<port id="0">
					<dim>1</dim>
					<dim>16</dim>
					<dim>128</dim>
					<dim>256</dim>
				</port>
			</input>
			<output>
				<port id="3">
					<dim>1</dim>
					<dim>16</dim>
					<dim>128</dim>
					<dim>256</dim>
				</port>
			</output>
			<blobs>
				<weights offset="6348" size="256"/>
				<biases offset="6604" size="64"/>
			</blobs>
		</layer>
		<layer id="100" name="1404" precision="FP32" type="Eltwise">
			<data operation="sum"/>
			<input>
				<port id="0">
					<dim>1</dim>
					<dim>16</dim>
					<dim>128</dim>
					<dim>256</dim>
				</port>
				<port id="1">
					<dim>1</dim>
					<dim>16</dim>
					<dim>128</dim>
					<dim>256</dim>
				</port>
			</input>
			<output>
				<port id="2">
					<dim>1</dim>
					<dim>16</dim>
					<dim>128</dim>
					<dim>256</dim>
				</port>
			</output>
		</layer>
		<layer id="101" name="1405" precision="FP32" type="Pooling">
			<data exclude-pad="true" kernel="2,2" pads_begin="0,0" pads_end="0,0" pool-method="max" rounding_type="floor" strides="2,2"/>
			<input>
				<port id="0">
					<dim>1</dim>
					<dim>16</dim>
					<dim>128</dim>
					<dim>256</dim>
				</port>
			</input>
			<output>
				<port id="1">
					<dim>1</dim>
					<dim>16</dim>
					<dim>64</dim>
					<dim>128</dim>
				</port>
			</output>
		</layer>
		<layer id="102" name="1406" precision="FP32" type="Convolution">
			<data dilations="1,1" group="1" kernel="1,1" output="8" pads_begin="0,0" pads_end="0,0" strides="1,1"/>
			<input>
				<port id="0">
					<dim>1</dim>
					<dim>16</dim>
					<dim>64</dim>
					<dim>128</dim>
				</port>
			</input>
			<output>
				<port id="3">
					<dim>1</dim>
					<dim>8</dim>
					<dim>64</dim>
					<dim>128</dim>
				</port>
			</output>
			<blobs>
				<weights offset="6668" size="512"/>
				<biases offset="7180" size="32"/>
			</blobs>
		</layer>
		<layer id="103" name="1408" precision="FP32" type="Convolution">
			<data dilations="1,1" group="4" kernel="3,3" output="4" pads_begin="1,1" pads_end="1,1" strides="1,1"/>
			<input>
				<port id="0">
					<dim>1</dim>
					<dim>8</dim>
					<dim>64</dim>
					<dim>128</dim>
				</port>
			</input>
			<output>
				<port id="3">
					<dim>1</dim>
					<dim>4</dim>
					<dim>64</dim>
					<dim>128</dim>
				</port>
			</output>
			<blobs>
				<weights offset="7212" size="288"/>
				<biases offset="7500" size="16"/>
			</blobs>
		</layer>
		<layer id="104" name="1410" precision="FP32" type="Convolution">
			<data dilations="1,1" group="4" kernel="1,1" output="4" pads_begin="0,0" pads_end="0,0" strides="1,1"/>
			<input>
				<port id="0">
					<dim>1</dim>
					<dim>8</dim>
					<dim>64</dim>
					<dim>128</dim>
				</port>
			</input>
			<output>
				<port id="3">
					<dim>1</dim>
					<dim>4</dim>
					<dim>64</dim>
					<dim>128</dim>
				</port>
			</output>
			<blobs>
				<weights offset="7516" size="32"/>
				<biases offset="7548" size="16"/>
			</blobs>
		</layer>
		<layer id="105" name="1412" precision="FP32" type="Convolution">
			<data dilations="1,1" group="4" kernel="3,1" output="4" pads_begin="1,0" pads_end="1,0" strides="1,1"/>
			<input>
				<port id="0">
					<dim>1</dim>
					<dim>8</dim>
					<dim>64</dim>
					<dim>128</dim>
				</port>
			</input>
			<output>
				<port id="3">
					<dim>1</dim>
					<dim>4</dim>
					<dim>64</dim>
					<dim>128</dim>
				</port>
			</output>
			<blobs>
				<weights offset="7564" size="96"/>
				<biases offset="7660" size="16"/>
			</blobs>
		</layer>
		<layer id="106" name="1414" precision="FP32" type="Convolution">
			<data dilations="1,1" group="4" kernel="1,3" output="4" pads_begin="0,1" pads_end="0,1" strides="1,1"/>
			<input>
				<port id="0">
					<dim>1</dim>
					<dim>4</dim>
					<dim>64</dim>
					<dim>128</dim>
				</port>
			</input>
			<output>
				<port id="3">
					<dim>1</dim>
					<dim>4</dim>
					<dim>64</dim>
					<dim>128</dim>
				</port>
			</output>
			<blobs>
				<weights offset="7676" size="48"/>
				<biases offset="7724" size="16"/>
			</blobs>
		</layer>
		<layer id="107" name="1416" precision="FP32" type="Convolution">
			<data dilations="1,1" group="4" kernel="1,3" output="4" pads_begin="0,1" pads_end="0,1" strides="1,1"/>
			<input>
				<port id="0">
					<dim>1</dim>
					<dim>8</dim>
					<dim>64</dim>
					<dim>128</dim>
				</port>
			</input>
			<output>
				<port id="3">
					<dim>1</dim>
					<dim>4</dim>
					<dim>64</dim>
					<dim>128</dim>
				</port>
			</output>
			<blobs>
				<weights offset="7740" size="96"/>
				<biases offset="7836" size="16"/>
			</blobs>
		</layer>
		<layer id="108" name="1418" precision="FP32" type="Convolution">
			<data dilations="1,1" group="4" kernel="3,1" output="4" pads_begin="1,0" pads_end="1,0" strides="1,1"/>
			<input>
				<port id="0">
					<dim>1</dim>
					<dim>4</dim>
					<dim>64</dim>
					<dim>128</dim>
				</port>
			</input>
			<output>
				<port id="3">
					<dim>1</dim>
					<dim>4</dim>
					<dim>64</dim>
					<dim>128</dim>
				</port>
			</output>
			<blobs>
				<weights offset="7852" size="48"/>
				<biases offset="7900" size="16"/>
			</blobs>
		</layer>
		<layer id="109" name="1420" precision="FP32" type="Concat">
			<data axis="1"/>
			<input>
				<port id="0">
					<dim>1</dim>
					<dim>4</dim>
					<dim>64</dim>
					<dim>128</dim>
				</port>
				<port id="1">
					<dim>1</dim>
					<dim>4</dim>
					<dim>64</dim>
					<dim>128</dim>
				</port>
				<port id="2">
					<dim>1</dim>
					<dim>4</dim>
					<dim>64</dim>
					<dim>128</dim>
				</port>
				<port id="3">
					<dim>1</dim>
					<dim>4</dim>
					<dim>64</dim>
					<dim>128</dim>
				</port>
				<port id="4">
					<dim>1</dim>
					<dim>16</dim>
					<dim>64</dim>
					<dim>128</dim>
				</port>
			</input>
			<output>
				<port id="5">
					<dim>1</dim>
					<dim>32</dim>
					<dim>64</dim>
					<dim>128</dim>
				</port>
			</output>
		</layer>
		<layer id="110" name="1441/Output_0/Data__const" precision="I32" type="Const">
			<output>
				<port id="1">
					<dim>5</dim>
				</port>
			</output>
			<blobs>
				<custom offset="7916" size="20"/>
			</blobs>
		</layer>
		<layer id="111" name="1442" precision="FP32" type="Reshape">
			<input>
				<port id="0">
					<dim>1</dim>
					<dim>32</dim>
					<dim>64</dim>
					<dim>128</dim>
				</port>
				<port id="1">
					<dim>5</dim>
				</port>
			</input>
			<output>
				<port id="2">
					<dim>1</dim>
					<dim>4</dim>
					<dim>8</dim>
					<dim>64</dim>
					<dim>128</dim>
				</port>
			</output>
		</layer>
		<layer id="112" name="1443" precision="FP32" type="Permute">
			<data order="0,2,1,3,4"/>
			<input>
				<port id="0">
					<dim>1</dim>
					<dim>4</dim>
					<dim>8</dim>
					<dim>64</dim>
					<dim>128</dim>
				</port>
			</input>
			<output>
				<port id="1">
					<dim>1</dim>
					<dim>8</dim>
					<dim>4</dim>
					<dim>64</dim>
					<dim>128</dim>
				</port>
			</output>
		</layer>
		<layer id="113" name="1448/Output_0/Data__const" precision="I32" type="Const">
			<output>
				<port id="1">
					<dim>4</dim>
				</port>
			</output>
			<blobs>
				<custom offset="7936" size="16"/>
			</blobs>
		</layer>
		<layer id="114" name="1449" precision="FP32" type="Reshape">
			<input>
				<port id="0">
					<dim>1</dim>
					<dim>8</dim>
					<dim>4</dim>
					<dim>64</dim>
					<dim>128</dim>
				</port>
				<port id="1">
					<dim>4</dim>
				</port>
			</input>
			<output>
				<port id="2">
					<dim>1</dim>
					<dim>32</dim>
					<dim>64</dim>
					<dim>128</dim>
				</port>
			</output>
		</layer>
		<layer id="115" name="1450" precision="FP32" type="PReLU">
			<data channel_shared="1"/>
			<input>
				<port id="0">
					<dim>1</dim>
					<dim>32</dim>
					<dim>64</dim>
					<dim>128</dim>
				</port>
			</input>
			<output>
				<port id="2">
					<dim>1</dim>
					<dim>32</dim>
					<dim>64</dim>
					<dim>128</dim>
				</port>
			</output>
			<blobs>
				<weights offset="7952" size="4"/>
			</blobs>
		</layer>
		<layer id="116" name="1451" precision="FP32" type="Convolution">
			<data dilations="1,1" group="8" kernel="1,1" output="32" pads_begin="0,0" pads_end="0,0" strides="1,1"/>
			<input>
				<port id="0">
					<dim>1</dim>
					<dim>32</dim>
					<dim>64</dim>
					<dim>128</dim>
				</port>
			</input>
			<output>
				<port id="3">
					<dim>1</dim>
					<dim>32</dim>
					<dim>64</dim>
					<dim>128</dim>
				</port>
			</output>
			<blobs>
				<weights offset="7956" size="512"/>
				<biases offset="8468" size="128"/>
			</blobs>
		</layer>
		<layer id="117" name="1452" precision="FP32" type="Convolution">
			<data dilations="1,1" group="1" kernel="1,1" output="8" pads_begin="0,0" pads_end="0,0" strides="1,1"/>
			<input>
				<port id="0">
					<dim>1</dim>
					<dim>32</dim>
					<dim>64</dim>
					<dim>128</dim>
				</port>
			</input>
			<output>
				<port id="3">
					<dim>1</dim>
					<dim>8</dim>
					<dim>64</dim>
					<dim>128</dim>
				</port>
			</output>
			<blobs>
				<weights offset="8596" size="1024"/>
				<biases offset="9620" size="32"/>
			</blobs>
		</layer>
		<layer id="118" name="1454" precision="FP32" type="Convolution">
			<data dilations="1,1" group="8" kernel="3,3" output="8" pads_begin="1,1" pads_end="1,1" strides="1,1"/>
			<input>
				<port id="0">
					<dim>1</dim>
					<dim>8</dim>
					<dim>64</dim>
					<dim>128</dim>
				</port>
			</input>
			<output>
				<port id="3">
					<dim>1</dim>
					<dim>8</dim>
					<dim>64</dim>
					<dim>128</dim>
				</port>
			</output>
			<blobs>
				<weights offset="9652" size="288"/>
				<biases offset="9940" size="32"/>
			</blobs>
		</layer>
		<layer id="119" name="1456" precision="FP32" type="Convolution">
			<data dilations="1,1" group="8" kernel="3,3" output="8" pads_begin="1,1" pads_end="1,1" strides="1,1"/>
			<input>
				<port id="0">
					<dim>1</dim>
					<dim>8</dim>
					<dim>64</dim>
					<dim>128</dim>
				</port>
			</input>
			<output>
				<port id="3">
					<dim>1</dim>
					<dim>8</dim>
					<dim>64</dim>
					<dim>128</dim>
				</port>
			</output>
			<blobs>
				<weights offset="9972" size="288"/>
				<biases offset="10260" size="32"/>
			</blobs>
		</layer>
		<layer id="120" name="1458" precision="FP32" type="Convolution">
			<data dilations="1,1" group="8" kernel="3,1" output="8" pads_begin="1,0" pads_end="1,0" strides="1,1"/>
			<input>
				<port id="0">
					<dim>1</dim>
					<dim>8</dim>
					<dim>64</dim>
					<dim>128</dim>
				</port>
			</input>
			<output>
				<port id="3">
					<dim>1</dim>
					<dim>8</dim>
					<dim>64</dim>
					<dim>128</dim>
				</port>
			</output>
			<blobs>
				<weights offset="10292" size="96"/>
				<biases offset="10388" size="32"/>
			</blobs>
		</layer>
		<layer id="121" name="1460" precision="FP32" type="Convolution">
			<data dilations="1,1" group="8" kernel="1,3" output="8" pads_begin="0,1" pads_end="0,1" strides="1,1"/>
			<input>
				<port id="0">
					<dim>1</dim>
					<dim>8</dim>
					<dim>64</dim>
					<dim>128</dim>
				</port>
			</input>
			<output>
				<port id="3">
					<dim>1</dim>
					<dim>8</dim>
					<dim>64</dim>
					<dim>128</dim>
				</port>
			</output>
			<blobs>
				<weights offset="10420" size="96"/>
				<biases offset="10516" size="32"/>
			</blobs>
		</layer>
		<layer id="122" name="1462" precision="FP32" type="Convolution">
			<data dilations="1,1" group="8" kernel="1,3" output="8" pads_begin="0,1" pads_end="0,1" strides="1,1"/>
			<input>
				<port id="0">
					<dim>1</dim>
					<dim>8</dim>
					<dim>64</dim>
					<dim>128</dim>
				</port>
			</input>
			<output>
				<port id="3">
					<dim>1</dim>
					<dim>8</dim>
					<dim>64</dim>
					<dim>128</dim>
				</port>
			</output>
			<blobs>
				<weights offset="10548" size="96"/>
				<biases offset="10644" size="32"/>
			</blobs>
		</layer>
		<layer id="123" name="1464" precision="FP32" type="Convolution">
			<data dilations="1,1" group="8" kernel="3,1" output="8" pads_begin="1,0" pads_end="1,0" strides="1,1"/>
			<input>
				<port id="0">
					<dim>1</dim>
					<dim>8</dim>
					<dim>64</dim>
					<dim>128</dim>
				</port>
			</input>
			<output>
				<port id="3">
					<dim>1</dim>
					<dim>8</dim>
					<dim>64</dim>
					<dim>128</dim>
				</port>
			</output>
			<blobs>
				<weights offset="10676" size="96"/>
				<biases offset="10772" size="32"/>
			</blobs>
		</layer>
		<layer id="124" name="1466" precision="FP32" type="Concat">
			<data axis="1"/>
			<input>
				<port id="0">
					<dim>1</dim>
					<dim>8</dim>
					<dim>64</dim>
					<dim>128</dim>
				</port>
				<port id="1">
					<dim>1</dim>
					<dim>8</dim>
					<dim>64</dim>
					<dim>128</dim>
				</port>
				<port id="2">
					<dim>1</dim>
					<dim>8</dim>
					<dim>64</dim>
					<dim>128</dim>
				</port>
				<port id="3">
					<dim>1</dim>
					<dim>8</dim>
					<dim>64</dim>
					<dim>128</dim>
				</port>
			</input>
			<output>
				<port id="4">
					<dim>1</dim>
					<dim>32</dim>
					<dim>64</dim>
					<dim>128</dim>
				</port>
			</output>
		</layer>
		<layer id="125" name="1487/Output_0/Data__const" precision="I32" type="Const">
			<output>
				<port id="1">
					<dim>5</dim>
				</port>
			</output>
			<blobs>
				<custom offset="7916" size="20"/>
			</blobs>
		</layer>
		<layer id="126" name="1488" precision="FP32" type="Reshape">
			<input>
				<port id="0">
					<dim>1</dim>
					<dim>32</dim>
					<dim>64</dim>
					<dim>128</dim>
				</port>
				<port id="1">
					<dim>5</dim>
				</port>
			</input>
			<output>
				<port id="2">
					<dim>1</dim>
					<dim>4</dim>
					<dim>8</dim>
					<dim>64</dim>
					<dim>128</dim>
				</port>
			</output>
		</layer>
		<layer id="127" name="1489" precision="FP32" type="Permute">
			<data order="0,2,1,3,4"/>
			<input>
				<port id="0">
					<dim>1</dim>
					<dim>4</dim>
					<dim>8</dim>
					<dim>64</dim>
					<dim>128</dim>
				</port>
			</input>
			<output>
				<port id="1">
					<dim>1</dim>
					<dim>8</dim>
					<dim>4</dim>
					<dim>64</dim>
					<dim>128</dim>
				</port>
			</output>
		</layer>
		<layer id="128" name="1494/Output_0/Data__const" precision="I32" type="Const">
			<output>
				<port id="1">
					<dim>4</dim>
				</port>
			</output>
			<blobs>
				<custom offset="7936" size="16"/>
			</blobs>
		</layer>
		<layer id="129" name="1495" precision="FP32" type="Reshape">
			<input>
				<port id="0">
					<dim>1</dim>
					<dim>8</dim>
					<dim>4</dim>
					<dim>64</dim>
					<dim>128</dim>
				</port>
				<port id="1">
					<dim>4</dim>
				</port>
			</input>
			<output>
				<port id="2">
					<dim>1</dim>
					<dim>32</dim>
					<dim>64</dim>
					<dim>128</dim>
				</port>
			</output>
		</layer>
		<layer id="130" name="1496" precision="FP32" type="PReLU">
			<data channel_shared="1"/>
			<input>
				<port id="0">
					<dim>1</dim>
					<dim>32</dim>
					<dim>64</dim>
					<dim>128</dim>
				</port>
			</input>
			<output>
				<port id="2">
					<dim>1</dim>
					<dim>32</dim>
					<dim>64</dim>
					<dim>128</dim>
				</port>
			</output>
			<blobs>
				<weights offset="10804" size="4"/>
			</blobs>
		</layer>
		<layer id="131" name="1497" precision="FP32" type="Convolution">
			<data dilations="1,1" group="8" kernel="1,1" output="32" pads_begin="0,0" pads_end="0,0" strides="1,1"/>
			<input>
				<port id="0">
					<dim>1</dim>
					<dim>32</dim>
					<dim>64</dim>
					<dim>128</dim>
				</port>
			</input>
			<output>
				<port id="3">
					<dim>1</dim>
					<dim>32</dim>
					<dim>64</dim>
					<dim>128</dim>
				</port>
			</output>
			<blobs>
				<weights offset="10808" size="512"/>
				<biases offset="11320" size="128"/>
			</blobs>
		</layer>
		<layer id="132" name="1499" precision="FP32" type="Eltwise">
			<data operation="sum"/>
			<input>
				<port id="0">
					<dim>1</dim>
					<dim>32</dim>
					<dim>64</dim>
					<dim>128</dim>
				</port>
				<port id="1">
					<dim>1</dim>
					<dim>32</dim>
					<dim>64</dim>
					<dim>128</dim>
				</port>
			</input>
			<output>
				<port id="2">
					<dim>1</dim>
					<dim>32</dim>
					<dim>64</dim>
					<dim>128</dim>
				</port>
			</output>
		</layer>
		<layer id="133" name="1500" precision="FP32" type="Convolution">
			<data dilations="1,1" group="1" kernel="1,1" output="8" pads_begin="0,0" pads_end="0,0" strides="1,1"/>
			<input>
				<port id="0">
					<dim>1</dim>
					<dim>32</dim>
					<dim>64</dim>
					<dim>128</dim>
				</port>
			</input>
			<output>
				<port id="3">
					<dim>1</dim>
					<dim>8</dim>
					<dim>64</dim>
					<dim>128</dim>
				</port>
			</output>
			<blobs>
				<weights offset="11448" size="1024"/>
				<biases offset="12472" size="32"/>
			</blobs>
		</layer>
		<layer id="134" name="1502" precision="FP32" type="Convolution">
			<data dilations="1,1" group="8" kernel="3,3" output="8" pads_begin="1,1" pads_end="1,1" strides="1,1"/>
			<input>
				<port id="0">
					<dim>1</dim>
					<dim>8</dim>
					<dim>64</dim>
					<dim>128</dim>
				</port>
			</input>
			<output>
				<port id="3">
					<dim>1</dim>
					<dim>8</dim>
					<dim>64</dim>
					<dim>128</dim>
				</port>
			</output>
			<blobs>
				<weights offset="12504" size="288"/>
				<biases offset="12792" size="32"/>
			</blobs>
		</layer>
		<layer id="135" name="1504" precision="FP32" type="Convolution">
			<data dilations="1,1" group="8" kernel="3,3" output="8" pads_begin="1,1" pads_end="1,1" strides="1,1"/>
			<input>
				<port id="0">
					<dim>1</dim>
					<dim>8</dim>
					<dim>64</dim>
					<dim>128</dim>
				</port>
			</input>
			<output>
				<port id="3">
					<dim>1</dim>
					<dim>8</dim>
					<dim>64</dim>
					<dim>128</dim>
				</port>
			</output>
			<blobs>
				<weights offset="12824" size="288"/>
				<biases offset="13112" size="32"/>
			</blobs>
		</layer>
		<layer id="136" name="1506" precision="FP32" type="Convolution">
			<data dilations="1,1" group="8" kernel="3,1" output="8" pads_begin="1,0" pads_end="1,0" strides="1,1"/>
			<input>
				<port id="0">
					<dim>1</dim>
					<dim>8</dim>
					<dim>64</dim>
					<dim>128</dim>
				</port>
			</input>
			<output>
				<port id="3">
					<dim>1</dim>
					<dim>8</dim>
					<dim>64</dim>
					<dim>128</dim>
				</port>
			</output>
			<blobs>
				<weights offset="13144" size="96"/>
				<biases offset="13240" size="32"/>
			</blobs>
		</layer>
		<layer id="137" name="1508" precision="FP32" type="Convolution">
			<data dilations="1,1" group="8" kernel="1,3" output="8" pads_begin="0,1" pads_end="0,1" strides="1,1"/>
			<input>
				<port id="0">
					<dim>1</dim>
					<dim>8</dim>
					<dim>64</dim>
					<dim>128</dim>
				</port>
			</input>
			<output>
				<port id="3">
					<dim>1</dim>
					<dim>8</dim>
					<dim>64</dim>
					<dim>128</dim>
				</port>
			</output>
			<blobs>
				<weights offset="13272" size="96"/>
				<biases offset="13368" size="32"/>
			</blobs>
		</layer>
		<layer id="138" name="1510" precision="FP32" type="Convolution">
			<data dilations="1,1" group="8" kernel="1,3" output="8" pads_begin="0,1" pads_end="0,1" strides="1,1"/>
			<input>
				<port id="0">
					<dim>1</dim>
					<dim>8</dim>
					<dim>64</dim>
					<dim>128</dim>
				</port>
			</input>
			<output>
				<port id="3">
					<dim>1</dim>
					<dim>8</dim>
					<dim>64</dim>
					<dim>128</dim>
				</port>
			</output>
			<blobs>
				<weights offset="13400" size="96"/>
				<biases offset="13496" size="32"/>
			</blobs>
		</layer>
		<layer id="139" name="1512" precision="FP32" type="Convolution">
			<data dilations="1,1" group="8" kernel="3,1" output="8" pads_begin="1,0" pads_end="1,0" strides="1,1"/>
			<input>
				<port id="0">
					<dim>1</dim>
					<dim>8</dim>
					<dim>64</dim>
					<dim>128</dim>
				</port>
			</input>
			<output>
				<port id="3">
					<dim>1</dim>
					<dim>8</dim>
					<dim>64</dim>
					<dim>128</dim>
				</port>
			</output>
			<blobs>
				<weights offset="13528" size="96"/>
				<biases offset="13624" size="32"/>
			</blobs>
		</layer>
		<layer id="140" name="1514" precision="FP32" type="Concat">
			<data axis="1"/>
			<input>
				<port id="0">
					<dim>1</dim>
					<dim>8</dim>
					<dim>64</dim>
					<dim>128</dim>
				</port>
				<port id="1">
					<dim>1</dim>
					<dim>8</dim>
					<dim>64</dim>
					<dim>128</dim>
				</port>
				<port id="2">
					<dim>1</dim>
					<dim>8</dim>
					<dim>64</dim>
					<dim>128</dim>
				</port>
				<port id="3">
					<dim>1</dim>
					<dim>8</dim>
					<dim>64</dim>
					<dim>128</dim>
				</port>
			</input>
			<output>
				<port id="4">
					<dim>1</dim>
					<dim>32</dim>
					<dim>64</dim>
					<dim>128</dim>
				</port>
			</output>
		</layer>
		<layer id="141" name="1535/Output_0/Data__const" precision="I32" type="Const">
			<output>
				<port id="1">
					<dim>5</dim>
				</port>
			</output>
			<blobs>
				<custom offset="7916" size="20"/>
			</blobs>
		</layer>
		<layer id="142" name="1536" precision="FP32" type="Reshape">
			<input>
				<port id="0">
					<dim>1</dim>
					<dim>32</dim>
					<dim>64</dim>
					<dim>128</dim>
				</port>
				<port id="1">
					<dim>5</dim>
				</port>
			</input>
			<output>
				<port id="2">
					<dim>1</dim>
					<dim>4</dim>
					<dim>8</dim>
					<dim>64</dim>
					<dim>128</dim>
				</port>
			</output>
		</layer>
		<layer id="143" name="1537" precision="FP32" type="Permute">
			<data order="0,2,1,3,4"/>
			<input>
				<port id="0">
					<dim>1</dim>
					<dim>4</dim>
					<dim>8</dim>
					<dim>64</dim>
					<dim>128</dim>
				</port>
			</input>
			<output>
				<port id="1">
					<dim>1</dim>
					<dim>8</dim>
					<dim>4</dim>
					<dim>64</dim>
					<dim>128</dim>
				</port>
			</output>
		</layer>
		<layer id="144" name="1542/Output_0/Data__const" precision="I32" type="Const">
			<output>
				<port id="1">
					<dim>4</dim>
				</port>
			</output>
			<blobs>
				<custom offset="7936" size="16"/>
			</blobs>
		</layer>
		<layer id="145" name="1543" precision="FP32" type="Reshape">
			<input>
				<port id="0">
					<dim>1</dim>
					<dim>8</dim>
					<dim>4</dim>
					<dim>64</dim>
					<dim>128</dim>
				</port>
				<port id="1">
					<dim>4</dim>
				</port>
			</input>
			<output>
				<port id="2">
					<dim>1</dim>
					<dim>32</dim>
					<dim>64</dim>
					<dim>128</dim>
				</port>
			</output>
		</layer>
		<layer id="146" name="1544" precision="FP32" type="PReLU">
			<data channel_shared="1"/>
			<input>
				<port id="0">
					<dim>1</dim>
					<dim>32</dim>
					<dim>64</dim>
					<dim>128</dim>
				</port>
			</input>
			<output>
				<port id="2">
					<dim>1</dim>
					<dim>32</dim>
					<dim>64</dim>
					<dim>128</dim>
				</port>
			</output>
			<blobs>
				<weights offset="13656" size="4"/>
			</blobs>
		</layer>
		<layer id="147" name="1545" precision="FP32" type="Convolution">
			<data dilations="1,1" group="8" kernel="1,1" output="32" pads_begin="0,0" pads_end="0,0" strides="1,1"/>
			<input>
				<port id="0">
					<dim>1</dim>
					<dim>32</dim>
					<dim>64</dim>
					<dim>128</dim>
				</port>
			</input>
			<output>
				<port id="3">
					<dim>1</dim>
					<dim>32</dim>
					<dim>64</dim>
					<dim>128</dim>
				</port>
			</output>
			<blobs>
				<weights offset="13660" size="512"/>
				<biases offset="14172" size="128"/>
			</blobs>
		</layer>
		<layer id="148" name="1547" precision="FP32" type="Eltwise">
			<data operation="sum"/>
			<input>
				<port id="0">
					<dim>1</dim>
					<dim>32</dim>
					<dim>64</dim>
					<dim>128</dim>
				</port>
				<port id="1">
					<dim>1</dim>
					<dim>32</dim>
					<dim>64</dim>
					<dim>128</dim>
				</port>
			</input>
			<output>
				<port id="2">
					<dim>1</dim>
					<dim>32</dim>
					<dim>64</dim>
					<dim>128</dim>
				</port>
			</output>
		</layer>
		<layer id="149" name="1548" precision="FP32" type="Convolution">
			<data dilations="1,1" group="1" kernel="1,1" output="8" pads_begin="0,0" pads_end="0,0" strides="1,1"/>
			<input>
				<port id="0">
					<dim>1</dim>
					<dim>32</dim>
					<dim>64</dim>
					<dim>128</dim>
				</port>
			</input>
			<output>
				<port id="3">
					<dim>1</dim>
					<dim>8</dim>
					<dim>64</dim>
					<dim>128</dim>
				</port>
			</output>
			<blobs>
				<weights offset="14300" size="1024"/>
				<biases offset="15324" size="32"/>
			</blobs>
		</layer>
		<layer id="150" name="1550" precision="FP32" type="Convolution">
			<data dilations="1,1" group="8" kernel="3,3" output="8" pads_begin="1,1" pads_end="1,1" strides="1,1"/>
			<input>
				<port id="0">
					<dim>1</dim>
					<dim>8</dim>
					<dim>64</dim>
					<dim>128</dim>
				</port>
			</input>
			<output>
				<port id="3">
					<dim>1</dim>
					<dim>8</dim>
					<dim>64</dim>
					<dim>128</dim>
				</port>
			</output>
			<blobs>
				<weights offset="15356" size="288"/>
				<biases offset="15644" size="32"/>
			</blobs>
		</layer>
		<layer id="151" name="1552" precision="FP32" type="Convolution">
			<data dilations="1,1" group="8" kernel="3,3" output="8" pads_begin="1,1" pads_end="1,1" strides="1,1"/>
			<input>
				<port id="0">
					<dim>1</dim>
					<dim>8</dim>
					<dim>64</dim>
					<dim>128</dim>
				</port>
			</input>
			<output>
				<port id="3">
					<dim>1</dim>
					<dim>8</dim>
					<dim>64</dim>
					<dim>128</dim>
				</port>
			</output>
			<blobs>
				<weights offset="15676" size="288"/>
				<biases offset="15964" size="32"/>
			</blobs>
		</layer>
		<layer id="152" name="1554" precision="FP32" type="Convolution">
			<data dilations="1,1" group="8" kernel="3,1" output="8" pads_begin="1,0" pads_end="1,0" strides="1,1"/>
			<input>
				<port id="0">
					<dim>1</dim>
					<dim>8</dim>
					<dim>64</dim>
					<dim>128</dim>
				</port>
			</input>
			<output>
				<port id="3">
					<dim>1</dim>
					<dim>8</dim>
					<dim>64</dim>
					<dim>128</dim>
				</port>
			</output>
			<blobs>
				<weights offset="15996" size="96"/>
				<biases offset="16092" size="32"/>
			</blobs>
		</layer>
		<layer id="153" name="1556" precision="FP32" type="Convolution">
			<data dilations="1,1" group="8" kernel="1,3" output="8" pads_begin="0,1" pads_end="0,1" strides="1,1"/>
			<input>
				<port id="0">
					<dim>1</dim>
					<dim>8</dim>
					<dim>64</dim>
					<dim>128</dim>
				</port>
			</input>
			<output>
				<port id="3">
					<dim>1</dim>
					<dim>8</dim>
					<dim>64</dim>
					<dim>128</dim>
				</port>
			</output>
			<blobs>
				<weights offset="16124" size="96"/>
				<biases offset="16220" size="32"/>
			</blobs>
		</layer>
		<layer id="154" name="1558" precision="FP32" type="Convolution">
			<data dilations="1,1" group="8" kernel="1,3" output="8" pads_begin="0,1" pads_end="0,1" strides="1,1"/>
			<input>
				<port id="0">
					<dim>1</dim>
					<dim>8</dim>
					<dim>64</dim>
					<dim>128</dim>
				</port>
			</input>
			<output>
				<port id="3">
					<dim>1</dim>
					<dim>8</dim>
					<dim>64</dim>
					<dim>128</dim>
				</port>
			</output>
			<blobs>
				<weights offset="16252" size="96"/>
				<biases offset="16348" size="32"/>
			</blobs>
		</layer>
		<layer id="155" name="1560" precision="FP32" type="Convolution">
			<data dilations="1,1" group="8" kernel="3,1" output="8" pads_begin="1,0" pads_end="1,0" strides="1,1"/>
			<input>
				<port id="0">
					<dim>1</dim>
					<dim>8</dim>
					<dim>64</dim>
					<dim>128</dim>
				</port>
			</input>
			<output>
				<port id="3">
					<dim>1</dim>
					<dim>8</dim>
					<dim>64</dim>
					<dim>128</dim>
				</port>
			</output>
			<blobs>
				<weights offset="16380" size="96"/>
				<biases offset="16476" size="32"/>
			</blobs>
		</layer>
		<layer id="156" name="1562" precision="FP32" type="Concat">
			<data axis="1"/>
			<input>
				<port id="0">
					<dim>1</dim>
					<dim>8</dim>
					<dim>64</dim>
					<dim>128</dim>
				</port>
				<port id="1">
					<dim>1</dim>
					<dim>8</dim>
					<dim>64</dim>
					<dim>128</dim>
				</port>
				<port id="2">
					<dim>1</dim>
					<dim>8</dim>
					<dim>64</dim>
					<dim>128</dim>
				</port>
				<port id="3">
					<dim>1</dim>
					<dim>8</dim>
					<dim>64</dim>
					<dim>128</dim>
				</port>
			</input>
			<output>
				<port id="4">
					<dim>1</dim>
					<dim>32</dim>
					<dim>64</dim>
					<dim>128</dim>
				</port>
			</output>
		</layer>
		<layer id="157" name="1583/Output_0/Data__const" precision="I32" type="Const">
			<output>
				<port id="1">
					<dim>5</dim>
				</port>
			</output>
			<blobs>
				<custom offset="7916" size="20"/>
			</blobs>
		</layer>
		<layer id="158" name="1584" precision="FP32" type="Reshape">
			<input>
				<port id="0">
					<dim>1</dim>
					<dim>32</dim>
					<dim>64</dim>
					<dim>128</dim>
				</port>
				<port id="1">
					<dim>5</dim>
				</port>
			</input>
			<output>
				<port id="2">
					<dim>1</dim>
					<dim>4</dim>
					<dim>8</dim>
					<dim>64</dim>
					<dim>128</dim>
				</port>
			</output>
		</layer>
		<layer id="159" name="1585" precision="FP32" type="Permute">
			<data order="0,2,1,3,4"/>
			<input>
				<port id="0">
					<dim>1</dim>
					<dim>4</dim>
					<dim>8</dim>
					<dim>64</dim>
					<dim>128</dim>
				</port>
			</input>
			<output>
				<port id="1">
					<dim>1</dim>
					<dim>8</dim>
					<dim>4</dim>
					<dim>64</dim>
					<dim>128</dim>
				</port>
			</output>
		</layer>
		<layer id="160" name="1590/Output_0/Data__const" precision="I32" type="Const">
			<output>
				<port id="1">
					<dim>4</dim>
				</port>
			</output>
			<blobs>
				<custom offset="7936" size="16"/>
			</blobs>
		</layer>
		<layer id="161" name="1591" precision="FP32" type="Reshape">
			<input>
				<port id="0">
					<dim>1</dim>
					<dim>8</dim>
					<dim>4</dim>
					<dim>64</dim>
					<dim>128</dim>
				</port>
				<port id="1">
					<dim>4</dim>
				</port>
			</input>
			<output>
				<port id="2">
					<dim>1</dim>
					<dim>32</dim>
					<dim>64</dim>
					<dim>128</dim>
				</port>
			</output>
		</layer>
		<layer id="162" name="1592" precision="FP32" type="PReLU">
			<data channel_shared="1"/>
			<input>
				<port id="0">
					<dim>1</dim>
					<dim>32</dim>
					<dim>64</dim>
					<dim>128</dim>
				</port>
			</input>
			<output>
				<port id="2">
					<dim>1</dim>
					<dim>32</dim>
					<dim>64</dim>
					<dim>128</dim>
				</port>
			</output>
			<blobs>
				<weights offset="16508" size="4"/>
			</blobs>
		</layer>
		<layer id="163" name="1593" precision="FP32" type="Convolution">
			<data dilations="1,1" group="8" kernel="1,1" output="32" pads_begin="0,0" pads_end="0,0" strides="1,1"/>
			<input>
				<port id="0">
					<dim>1</dim>
					<dim>32</dim>
					<dim>64</dim>
					<dim>128</dim>
				</port>
			</input>
			<output>
				<port id="3">
					<dim>1</dim>
					<dim>32</dim>
					<dim>64</dim>
					<dim>128</dim>
				</port>
			</output>
			<blobs>
				<weights offset="16512" size="512"/>
				<biases offset="17024" size="128"/>
			</blobs>
		</layer>
		<layer id="164" name="1595" precision="FP32" type="Eltwise">
			<data operation="sum"/>
			<input>
				<port id="0">
					<dim>1</dim>
					<dim>32</dim>
					<dim>64</dim>
					<dim>128</dim>
				</port>
				<port id="1">
					<dim>1</dim>
					<dim>32</dim>
					<dim>64</dim>
					<dim>128</dim>
				</port>
			</input>
			<output>
				<port id="2">
					<dim>1</dim>
					<dim>32</dim>
					<dim>64</dim>
					<dim>128</dim>
				</port>
			</output>
		</layer>
		<layer id="165" name="1596" precision="FP32" type="Convolution">
			<data dilations="1,1" group="1" kernel="1,1" output="8" pads_begin="0,0" pads_end="0,0" strides="1,1"/>
			<input>
				<port id="0">
					<dim>1</dim>
					<dim>32</dim>
					<dim>64</dim>
					<dim>128</dim>
				</port>
			</input>
			<output>
				<port id="3">
					<dim>1</dim>
					<dim>8</dim>
					<dim>64</dim>
					<dim>128</dim>
				</port>
			</output>
			<blobs>
				<weights offset="17152" size="1024"/>
				<biases offset="18176" size="32"/>
			</blobs>
		</layer>
		<layer id="166" name="1598" precision="FP32" type="Convolution">
			<data dilations="1,1" group="8" kernel="3,3" output="8" pads_begin="1,1" pads_end="1,1" strides="1,1"/>
			<input>
				<port id="0">
					<dim>1</dim>
					<dim>8</dim>
					<dim>64</dim>
					<dim>128</dim>
				</port>
			</input>
			<output>
				<port id="3">
					<dim>1</dim>
					<dim>8</dim>
					<dim>64</dim>
					<dim>128</dim>
				</port>
			</output>
			<blobs>
				<weights offset="18208" size="288"/>
				<biases offset="18496" size="32"/>
			</blobs>
		</layer>
		<layer id="167" name="1600" precision="FP32" type="Convolution">
			<data dilations="1,1" group="8" kernel="3,3" output="8" pads_begin="1,1" pads_end="1,1" strides="1,1"/>
			<input>
				<port id="0">
					<dim>1</dim>
					<dim>8</dim>
					<dim>64</dim>
					<dim>128</dim>
				</port>
			</input>
			<output>
				<port id="3">
					<dim>1</dim>
					<dim>8</dim>
					<dim>64</dim>
					<dim>128</dim>
				</port>
			</output>
			<blobs>
				<weights offset="18528" size="288"/>
				<biases offset="18816" size="32"/>
			</blobs>
		</layer>
		<layer id="168" name="1602" precision="FP32" type="Convolution">
			<data dilations="1,1" group="8" kernel="3,1" output="8" pads_begin="1,0" pads_end="1,0" strides="1,1"/>
			<input>
				<port id="0">
					<dim>1</dim>
					<dim>8</dim>
					<dim>64</dim>
					<dim>128</dim>
				</port>
			</input>
			<output>
				<port id="3">
					<dim>1</dim>
					<dim>8</dim>
					<dim>64</dim>
					<dim>128</dim>
				</port>
			</output>
			<blobs>
				<weights offset="18848" size="96"/>
				<biases offset="18944" size="32"/>
			</blobs>
		</layer>
		<layer id="169" name="1604" precision="FP32" type="Convolution">
			<data dilations="1,1" group="8" kernel="1,3" output="8" pads_begin="0,1" pads_end="0,1" strides="1,1"/>
			<input>
				<port id="0">
					<dim>1</dim>
					<dim>8</dim>
					<dim>64</dim>
					<dim>128</dim>
				</port>
			</input>
			<output>
				<port id="3">
					<dim>1</dim>
					<dim>8</dim>
					<dim>64</dim>
					<dim>128</dim>
				</port>
			</output>
			<blobs>
				<weights offset="18976" size="96"/>
				<biases offset="19072" size="32"/>
			</blobs>
		</layer>
		<layer id="170" name="1606" precision="FP32" type="Convolution">
			<data dilations="1,1" group="8" kernel="1,3" output="8" pads_begin="0,1" pads_end="0,1" strides="1,1"/>
			<input>
				<port id="0">
					<dim>1</dim>
					<dim>8</dim>
					<dim>64</dim>
					<dim>128</dim>
				</port>
			</input>
			<output>
				<port id="3">
					<dim>1</dim>
					<dim>8</dim>
					<dim>64</dim>
					<dim>128</dim>
				</port>
			</output>
			<blobs>
				<weights offset="19104" size="96"/>
				<biases offset="19200" size="32"/>
			</blobs>
		</layer>
		<layer id="171" name="1608" precision="FP32" type="Convolution">
			<data dilations="1,1" group="8" kernel="3,1" output="8" pads_begin="1,0" pads_end="1,0" strides="1,1"/>
			<input>
				<port id="0">
					<dim>1</dim>
					<dim>8</dim>
					<dim>64</dim>
					<dim>128</dim>
				</port>
			</input>
			<output>
				<port id="3">
					<dim>1</dim>
					<dim>8</dim>
					<dim>64</dim>
					<dim>128</dim>
				</port>
			</output>
			<blobs>
				<weights offset="19232" size="96"/>
				<biases offset="19328" size="32"/>
			</blobs>
		</layer>
		<layer id="172" name="1610" precision="FP32" type="Concat">
			<data axis="1"/>
			<input>
				<port id="0">
					<dim>1</dim>
					<dim>8</dim>
					<dim>64</dim>
					<dim>128</dim>
				</port>
				<port id="1">
					<dim>1</dim>
					<dim>8</dim>
					<dim>64</dim>
					<dim>128</dim>
				</port>
				<port id="2">
					<dim>1</dim>
					<dim>8</dim>
					<dim>64</dim>
					<dim>128</dim>
				</port>
				<port id="3">
					<dim>1</dim>
					<dim>8</dim>
					<dim>64</dim>
					<dim>128</dim>
				</port>
			</input>
			<output>
				<port id="4">
					<dim>1</dim>
					<dim>32</dim>
					<dim>64</dim>
					<dim>128</dim>
				</port>
			</output>
		</layer>
		<layer id="173" name="1631/Output_0/Data__const" precision="I32" type="Const">
			<output>
				<port id="1">
					<dim>5</dim>
				</port>
			</output>
			<blobs>
				<custom offset="7916" size="20"/>
			</blobs>
		</layer>
		<layer id="174" name="1632" precision="FP32" type="Reshape">
			<input>
				<port id="0">
					<dim>1</dim>
					<dim>32</dim>
					<dim>64</dim>
					<dim>128</dim>
				</port>
				<port id="1">
					<dim>5</dim>
				</port>
			</input>
			<output>
				<port id="2">
					<dim>1</dim>
					<dim>4</dim>
					<dim>8</dim>
					<dim>64</dim>
					<dim>128</dim>
				</port>
			</output>
		</layer>
		<layer id="175" name="1633" precision="FP32" type="Permute">
			<data order="0,2,1,3,4"/>
			<input>
				<port id="0">
					<dim>1</dim>
					<dim>4</dim>
					<dim>8</dim>
					<dim>64</dim>
					<dim>128</dim>
				</port>
			</input>
			<output>
				<port id="1">
					<dim>1</dim>
					<dim>8</dim>
					<dim>4</dim>
					<dim>64</dim>
					<dim>128</dim>
				</port>
			</output>
		</layer>
		<layer id="176" name="1638/Output_0/Data__const" precision="I32" type="Const">
			<output>
				<port id="1">
					<dim>4</dim>
				</port>
			</output>
			<blobs>
				<custom offset="7936" size="16"/>
			</blobs>
		</layer>
		<layer id="177" name="1639" precision="FP32" type="Reshape">
			<input>
				<port id="0">
					<dim>1</dim>
					<dim>8</dim>
					<dim>4</dim>
					<dim>64</dim>
					<dim>128</dim>
				</port>
				<port id="1">
					<dim>4</dim>
				</port>
			</input>
			<output>
				<port id="2">
					<dim>1</dim>
					<dim>32</dim>
					<dim>64</dim>
					<dim>128</dim>
				</port>
			</output>
		</layer>
		<layer id="178" name="1640" precision="FP32" type="PReLU">
			<data channel_shared="1"/>
			<input>
				<port id="0">
					<dim>1</dim>
					<dim>32</dim>
					<dim>64</dim>
					<dim>128</dim>
				</port>
			</input>
			<output>
				<port id="2">
					<dim>1</dim>
					<dim>32</dim>
					<dim>64</dim>
					<dim>128</dim>
				</port>
			</output>
			<blobs>
				<weights offset="19360" size="4"/>
			</blobs>
		</layer>
		<layer id="179" name="1641" precision="FP32" type="Convolution">
			<data dilations="1,1" group="8" kernel="1,1" output="32" pads_begin="0,0" pads_end="0,0" strides="1,1"/>
			<input>
				<port id="0">
					<dim>1</dim>
					<dim>32</dim>
					<dim>64</dim>
					<dim>128</dim>
				</port>
			</input>
			<output>
				<port id="3">
					<dim>1</dim>
					<dim>32</dim>
					<dim>64</dim>
					<dim>128</dim>
				</port>
			</output>
			<blobs>
				<weights offset="19364" size="512"/>
				<biases offset="19876" size="128"/>
			</blobs>
		</layer>
		<layer id="180" name="1643" precision="FP32" type="Eltwise">
			<data operation="sum"/>
			<input>
				<port id="0">
					<dim>1</dim>
					<dim>32</dim>
					<dim>64</dim>
					<dim>128</dim>
				</port>
				<port id="1">
					<dim>1</dim>
					<dim>32</dim>
					<dim>64</dim>
					<dim>128</dim>
				</port>
			</input>
			<output>
				<port id="2">
					<dim>1</dim>
					<dim>32</dim>
					<dim>64</dim>
					<dim>128</dim>
				</port>
			</output>
		</layer>
		<layer id="181" name="1644" precision="FP32" type="Convolution">
			<data dilations="1,1" group="1" kernel="1,1" output="8" pads_begin="0,0" pads_end="0,0" strides="1,1"/>
			<input>
				<port id="0">
					<dim>1</dim>
					<dim>32</dim>
					<dim>64</dim>
					<dim>128</dim>
				</port>
			</input>
			<output>
				<port id="3">
					<dim>1</dim>
					<dim>8</dim>
					<dim>64</dim>
					<dim>128</dim>
				</port>
			</output>
			<blobs>
				<weights offset="20004" size="1024"/>
				<biases offset="21028" size="32"/>
			</blobs>
		</layer>
		<layer id="182" name="1646" precision="FP32" type="Convolution">
			<data dilations="1,1" group="8" kernel="3,3" output="8" pads_begin="1,1" pads_end="1,1" strides="1,1"/>
			<input>
				<port id="0">
					<dim>1</dim>
					<dim>8</dim>
					<dim>64</dim>
					<dim>128</dim>
				</port>
			</input>
			<output>
				<port id="3">
					<dim>1</dim>
					<dim>8</dim>
					<dim>64</dim>
					<dim>128</dim>
				</port>
			</output>
			<blobs>
				<weights offset="21060" size="288"/>
				<biases offset="21348" size="32"/>
			</blobs>
		</layer>
		<layer id="183" name="1648" precision="FP32" type="Convolution">
			<data dilations="1,1" group="8" kernel="3,3" output="8" pads_begin="1,1" pads_end="1,1" strides="1,1"/>
			<input>
				<port id="0">
					<dim>1</dim>
					<dim>8</dim>
					<dim>64</dim>
					<dim>128</dim>
				</port>
			</input>
			<output>
				<port id="3">
					<dim>1</dim>
					<dim>8</dim>
					<dim>64</dim>
					<dim>128</dim>
				</port>
			</output>
			<blobs>
				<weights offset="21380" size="288"/>
				<biases offset="21668" size="32"/>
			</blobs>
		</layer>
		<layer id="184" name="1650" precision="FP32" type="Convolution">
			<data dilations="1,1" group="8" kernel="3,1" output="8" pads_begin="1,0" pads_end="1,0" strides="1,1"/>
			<input>
				<port id="0">
					<dim>1</dim>
					<dim>8</dim>
					<dim>64</dim>
					<dim>128</dim>
				</port>
			</input>
			<output>
				<port id="3">
					<dim>1</dim>
					<dim>8</dim>
					<dim>64</dim>
					<dim>128</dim>
				</port>
			</output>
			<blobs>
				<weights offset="21700" size="96"/>
				<biases offset="21796" size="32"/>
			</blobs>
		</layer>
		<layer id="185" name="1652" precision="FP32" type="Convolution">
			<data dilations="1,1" group="8" kernel="1,3" output="8" pads_begin="0,1" pads_end="0,1" strides="1,1"/>
			<input>
				<port id="0">
					<dim>1</dim>
					<dim>8</dim>
					<dim>64</dim>
					<dim>128</dim>
				</port>
			</input>
			<output>
				<port id="3">
					<dim>1</dim>
					<dim>8</dim>
					<dim>64</dim>
					<dim>128</dim>
				</port>
			</output>
			<blobs>
				<weights offset="21828" size="96"/>
				<biases offset="21924" size="32"/>
			</blobs>
		</layer>
		<layer id="186" name="1654" precision="FP32" type="Convolution">
			<data dilations="1,1" group="8" kernel="1,3" output="8" pads_begin="0,1" pads_end="0,1" strides="1,1"/>
			<input>
				<port id="0">
					<dim>1</dim>
					<dim>8</dim>
					<dim>64</dim>
					<dim>128</dim>
				</port>
			</input>
			<output>
				<port id="3">
					<dim>1</dim>
					<dim>8</dim>
					<dim>64</dim>
					<dim>128</dim>
				</port>
			</output>
			<blobs>
				<weights offset="21956" size="96"/>
				<biases offset="22052" size="32"/>
			</blobs>
		</layer>
		<layer id="187" name="1656" precision="FP32" type="Convolution">
			<data dilations="1,1" group="8" kernel="3,1" output="8" pads_begin="1,0" pads_end="1,0" strides="1,1"/>
			<input>
				<port id="0">
					<dim>1</dim>
					<dim>8</dim>
					<dim>64</dim>
					<dim>128</dim>
				</port>
			</input>
			<output>
				<port id="3">
					<dim>1</dim>
					<dim>8</dim>
					<dim>64</dim>
					<dim>128</dim>
				</port>
			</output>
			<blobs>
				<weights offset="22084" size="96"/>
				<biases offset="22180" size="32"/>
			</blobs>
		</layer>
		<layer id="188" name="1658" precision="FP32" type="Concat">
			<data axis="1"/>
			<input>
				<port id="0">
					<dim>1</dim>
					<dim>8</dim>
					<dim>64</dim>
					<dim>128</dim>
				</port>
				<port id="1">
					<dim>1</dim>
					<dim>8</dim>
					<dim>64</dim>
					<dim>128</dim>
				</port>
				<port id="2">
					<dim>1</dim>
					<dim>8</dim>
					<dim>64</dim>
					<dim>128</dim>
				</port>
				<port id="3">
					<dim>1</dim>
					<dim>8</dim>
					<dim>64</dim>
					<dim>128</dim>
				</port>
			</input>
			<output>
				<port id="4">
					<dim>1</dim>
					<dim>32</dim>
					<dim>64</dim>
					<dim>128</dim>
				</port>
			</output>
		</layer>
		<layer id="189" name="1679/Output_0/Data__const" precision="I32" type="Const">
			<output>
				<port id="1">
					<dim>5</dim>
				</port>
			</output>
			<blobs>
				<custom offset="7916" size="20"/>
			</blobs>
		</layer>
		<layer id="190" name="1680" precision="FP32" type="Reshape">
			<input>
				<port id="0">
					<dim>1</dim>
					<dim>32</dim>
					<dim>64</dim>
					<dim>128</dim>
				</port>
				<port id="1">
					<dim>5</dim>
				</port>
			</input>
			<output>
				<port id="2">
					<dim>1</dim>
					<dim>4</dim>
					<dim>8</dim>
					<dim>64</dim>
					<dim>128</dim>
				</port>
			</output>
		</layer>
		<layer id="191" name="1681" precision="FP32" type="Permute">
			<data order="0,2,1,3,4"/>
			<input>
				<port id="0">
					<dim>1</dim>
					<dim>4</dim>
					<dim>8</dim>
					<dim>64</dim>
					<dim>128</dim>
				</port>
			</input>
			<output>
				<port id="1">
					<dim>1</dim>
					<dim>8</dim>
					<dim>4</dim>
					<dim>64</dim>
					<dim>128</dim>
				</port>
			</output>
		</layer>
		<layer id="192" name="1686/Output_0/Data__const" precision="I32" type="Const">
			<output>
				<port id="1">
					<dim>4</dim>
				</port>
			</output>
			<blobs>
				<custom offset="7936" size="16"/>
			</blobs>
		</layer>
		<layer id="193" name="1687" precision="FP32" type="Reshape">
			<input>
				<port id="0">
					<dim>1</dim>
					<dim>8</dim>
					<dim>4</dim>
					<dim>64</dim>
					<dim>128</dim>
				</port>
				<port id="1">
					<dim>4</dim>
				</port>
			</input>
			<output>
				<port id="2">
					<dim>1</dim>
					<dim>32</dim>
					<dim>64</dim>
					<dim>128</dim>
				</port>
			</output>
		</layer>
		<layer id="194" name="1688" precision="FP32" type="PReLU">
			<data channel_shared="1"/>
			<input>
				<port id="0">
					<dim>1</dim>
					<dim>32</dim>
					<dim>64</dim>
					<dim>128</dim>
				</port>
			</input>
			<output>
				<port id="2">
					<dim>1</dim>
					<dim>32</dim>
					<dim>64</dim>
					<dim>128</dim>
				</port>
			</output>
			<blobs>
				<weights offset="22212" size="4"/>
			</blobs>
		</layer>
		<layer id="195" name="1689" precision="FP32" type="Convolution">
			<data dilations="1,1" group="8" kernel="1,1" output="32" pads_begin="0,0" pads_end="0,0" strides="1,1"/>
			<input>
				<port id="0">
					<dim>1</dim>
					<dim>32</dim>
					<dim>64</dim>
					<dim>128</dim>
				</port>
			</input>
			<output>
				<port id="3">
					<dim>1</dim>
					<dim>32</dim>
					<dim>64</dim>
					<dim>128</dim>
				</port>
			</output>
			<blobs>
				<weights offset="22216" size="512"/>
				<biases offset="22728" size="128"/>
			</blobs>
		</layer>
		<layer id="196" name="1691" precision="FP32" type="Eltwise">
			<data operation="sum"/>
			<input>
				<port id="0">
					<dim>1</dim>
					<dim>32</dim>
					<dim>64</dim>
					<dim>128</dim>
				</port>
				<port id="1">
					<dim>1</dim>
					<dim>32</dim>
					<dim>64</dim>
					<dim>128</dim>
				</port>
			</input>
			<output>
				<port id="2">
					<dim>1</dim>
					<dim>32</dim>
					<dim>64</dim>
					<dim>128</dim>
				</port>
			</output>
		</layer>
		<layer id="197" name="1692" precision="FP32" type="Convolution">
			<data dilations="1,1" group="1" kernel="1,1" output="8" pads_begin="0,0" pads_end="0,0" strides="1,1"/>
			<input>
				<port id="0">
					<dim>1</dim>
					<dim>32</dim>
					<dim>64</dim>
					<dim>128</dim>
				</port>
			</input>
			<output>
				<port id="3">
					<dim>1</dim>
					<dim>8</dim>
					<dim>64</dim>
					<dim>128</dim>
				</port>
			</output>
			<blobs>
				<weights offset="22856" size="1024"/>
				<biases offset="23880" size="32"/>
			</blobs>
		</layer>
		<layer id="198" name="1694" precision="FP32" type="Convolution">
			<data dilations="1,1" group="8" kernel="3,3" output="8" pads_begin="1,1" pads_end="1,1" strides="1,1"/>
			<input>
				<port id="0">
					<dim>1</dim>
					<dim>8</dim>
					<dim>64</dim>
					<dim>128</dim>
				</port>
			</input>
			<output>
				<port id="3">
					<dim>1</dim>
					<dim>8</dim>
					<dim>64</dim>
					<dim>128</dim>
				</port>
			</output>
			<blobs>
				<weights offset="23912" size="288"/>
				<biases offset="24200" size="32"/>
			</blobs>
		</layer>
		<layer id="199" name="1696" precision="FP32" type="Convolution">
			<data dilations="1,1" group="8" kernel="3,3" output="8" pads_begin="1,1" pads_end="1,1" strides="1,1"/>
			<input>
				<port id="0">
					<dim>1</dim>
					<dim>8</dim>
					<dim>64</dim>
					<dim>128</dim>
				</port>
			</input>
			<output>
				<port id="3">
					<dim>1</dim>
					<dim>8</dim>
					<dim>64</dim>
					<dim>128</dim>
				</port>
			</output>
			<blobs>
				<weights offset="24232" size="288"/>
				<biases offset="24520" size="32"/>
			</blobs>
		</layer>
		<layer id="200" name="1698" precision="FP32" type="Convolution">
			<data dilations="1,1" group="8" kernel="3,1" output="8" pads_begin="1,0" pads_end="1,0" strides="1,1"/>
			<input>
				<port id="0">
					<dim>1</dim>
					<dim>8</dim>
					<dim>64</dim>
					<dim>128</dim>
				</port>
			</input>
			<output>
				<port id="3">
					<dim>1</dim>
					<dim>8</dim>
					<dim>64</dim>
					<dim>128</dim>
				</port>
			</output>
			<blobs>
				<weights offset="24552" size="96"/>
				<biases offset="24648" size="32"/>
			</blobs>
		</layer>
		<layer id="201" name="1700" precision="FP32" type="Convolution">
			<data dilations="1,1" group="8" kernel="1,3" output="8" pads_begin="0,1" pads_end="0,1" strides="1,1"/>
			<input>
				<port id="0">
					<dim>1</dim>
					<dim>8</dim>
					<dim>64</dim>
					<dim>128</dim>
				</port>
			</input>
			<output>
				<port id="3">
					<dim>1</dim>
					<dim>8</dim>
					<dim>64</dim>
					<dim>128</dim>
				</port>
			</output>
			<blobs>
				<weights offset="24680" size="96"/>
				<biases offset="24776" size="32"/>
			</blobs>
		</layer>
		<layer id="202" name="1702" precision="FP32" type="Convolution">
			<data dilations="1,1" group="8" kernel="1,3" output="8" pads_begin="0,1" pads_end="0,1" strides="1,1"/>
			<input>
				<port id="0">
					<dim>1</dim>
					<dim>8</dim>
					<dim>64</dim>
					<dim>128</dim>
				</port>
			</input>
			<output>
				<port id="3">
					<dim>1</dim>
					<dim>8</dim>
					<dim>64</dim>
					<dim>128</dim>
				</port>
			</output>
			<blobs>
				<weights offset="24808" size="96"/>
				<biases offset="24904" size="32"/>
			</blobs>
		</layer>
		<layer id="203" name="1704" precision="FP32" type="Convolution">
			<data dilations="1,1" group="8" kernel="3,1" output="8" pads_begin="1,0" pads_end="1,0" strides="1,1"/>
			<input>
				<port id="0">
					<dim>1</dim>
					<dim>8</dim>
					<dim>64</dim>
					<dim>128</dim>
				</port>
			</input>
			<output>
				<port id="3">
					<dim>1</dim>
					<dim>8</dim>
					<dim>64</dim>
					<dim>128</dim>
				</port>
			</output>
			<blobs>
				<weights offset="24936" size="96"/>
				<biases offset="25032" size="32"/>
			</blobs>
		</layer>
		<layer id="204" name="1706" precision="FP32" type="Concat">
			<data axis="1"/>
			<input>
				<port id="0">
					<dim>1</dim>
					<dim>8</dim>
					<dim>64</dim>
					<dim>128</dim>
				</port>
				<port id="1">
					<dim>1</dim>
					<dim>8</dim>
					<dim>64</dim>
					<dim>128</dim>
				</port>
				<port id="2">
					<dim>1</dim>
					<dim>8</dim>
					<dim>64</dim>
					<dim>128</dim>
				</port>
				<port id="3">
					<dim>1</dim>
					<dim>8</dim>
					<dim>64</dim>
					<dim>128</dim>
				</port>
			</input>
			<output>
				<port id="4">
					<dim>1</dim>
					<dim>32</dim>
					<dim>64</dim>
					<dim>128</dim>
				</port>
			</output>
		</layer>
		<layer id="205" name="1727/Output_0/Data__const" precision="I32" type="Const">
			<output>
				<port id="1">
					<dim>5</dim>
				</port>
			</output>
			<blobs>
				<custom offset="7916" size="20"/>
			</blobs>
		</layer>
		<layer id="206" name="1728" precision="FP32" type="Reshape">
			<input>
				<port id="0">
					<dim>1</dim>
					<dim>32</dim>
					<dim>64</dim>
					<dim>128</dim>
				</port>
				<port id="1">
					<dim>5</dim>
				</port>
			</input>
			<output>
				<port id="2">
					<dim>1</dim>
					<dim>4</dim>
					<dim>8</dim>
					<dim>64</dim>
					<dim>128</dim>
				</port>
			</output>
		</layer>
		<layer id="207" name="1729" precision="FP32" type="Permute">
			<data order="0,2,1,3,4"/>
			<input>
				<port id="0">
					<dim>1</dim>
					<dim>4</dim>
					<dim>8</dim>
					<dim>64</dim>
					<dim>128</dim>
				</port>
			</input>
			<output>
				<port id="1">
					<dim>1</dim>
					<dim>8</dim>
					<dim>4</dim>
					<dim>64</dim>
					<dim>128</dim>
				</port>
			</output>
		</layer>
		<layer id="208" name="1734/Output_0/Data__const" precision="I32" type="Const">
			<output>
				<port id="1">
					<dim>4</dim>
				</port>
			</output>
			<blobs>
				<custom offset="7936" size="16"/>
			</blobs>
		</layer>
		<layer id="209" name="1735" precision="FP32" type="Reshape">
			<input>
				<port id="0">
					<dim>1</dim>
					<dim>8</dim>
					<dim>4</dim>
					<dim>64</dim>
					<dim>128</dim>
				</port>
				<port id="1">
					<dim>4</dim>
				</port>
			</input>
			<output>
				<port id="2">
					<dim>1</dim>
					<dim>32</dim>
					<dim>64</dim>
					<dim>128</dim>
				</port>
			</output>
		</layer>
		<layer id="210" name="1736" precision="FP32" type="PReLU">
			<data channel_shared="1"/>
			<input>
				<port id="0">
					<dim>1</dim>
					<dim>32</dim>
					<dim>64</dim>
					<dim>128</dim>
				</port>
			</input>
			<output>
				<port id="2">
					<dim>1</dim>
					<dim>32</dim>
					<dim>64</dim>
					<dim>128</dim>
				</port>
			</output>
			<blobs>
				<weights offset="25064" size="4"/>
			</blobs>
		</layer>
		<layer id="211" name="1737" precision="FP32" type="Convolution">
			<data dilations="1,1" group="8" kernel="1,1" output="32" pads_begin="0,0" pads_end="0,0" strides="1,1"/>
			<input>
				<port id="0">
					<dim>1</dim>
					<dim>32</dim>
					<dim>64</dim>
					<dim>128</dim>
				</port>
			</input>
			<output>
				<port id="3">
					<dim>1</dim>
					<dim>32</dim>
					<dim>64</dim>
					<dim>128</dim>
				</port>
			</output>
			<blobs>
				<weights offset="25068" size="512"/>
				<biases offset="25580" size="128"/>
			</blobs>
		</layer>
		<layer id="212" name="1739" precision="FP32" type="Eltwise">
			<data operation="sum"/>
			<input>
				<port id="0">
					<dim>1</dim>
					<dim>32</dim>
					<dim>64</dim>
					<dim>128</dim>
				</port>
				<port id="1">
					<dim>1</dim>
					<dim>32</dim>
					<dim>64</dim>
					<dim>128</dim>
				</port>
			</input>
			<output>
				<port id="2">
					<dim>1</dim>
					<dim>32</dim>
					<dim>64</dim>
					<dim>128</dim>
				</port>
			</output>
		</layer>
		<layer id="213" name="1740" precision="FP32" type="Convolution">
			<data dilations="1,1" group="1" kernel="1,1" output="8" pads_begin="0,0" pads_end="0,0" strides="1,1"/>
			<input>
				<port id="0">
					<dim>1</dim>
					<dim>32</dim>
					<dim>64</dim>
					<dim>128</dim>
				</port>
			</input>
			<output>
				<port id="3">
					<dim>1</dim>
					<dim>8</dim>
					<dim>64</dim>
					<dim>128</dim>
				</port>
			</output>
			<blobs>
				<weights offset="25708" size="1024"/>
				<biases offset="26732" size="32"/>
			</blobs>
		</layer>
		<layer id="214" name="1742" precision="FP32" type="Convolution">
			<data dilations="1,1" group="8" kernel="3,3" output="8" pads_begin="1,1" pads_end="1,1" strides="1,1"/>
			<input>
				<port id="0">
					<dim>1</dim>
					<dim>8</dim>
					<dim>64</dim>
					<dim>128</dim>
				</port>
			</input>
			<output>
				<port id="3">
					<dim>1</dim>
					<dim>8</dim>
					<dim>64</dim>
					<dim>128</dim>
				</port>
			</output>
			<blobs>
				<weights offset="26764" size="288"/>
				<biases offset="27052" size="32"/>
			</blobs>
		</layer>
		<layer id="215" name="1744" precision="FP32" type="Convolution">
			<data dilations="1,1" group="8" kernel="3,3" output="8" pads_begin="1,1" pads_end="1,1" strides="1,1"/>
			<input>
				<port id="0">
					<dim>1</dim>
					<dim>8</dim>
					<dim>64</dim>
					<dim>128</dim>
				</port>
			</input>
			<output>
				<port id="3">
					<dim>1</dim>
					<dim>8</dim>
					<dim>64</dim>
					<dim>128</dim>
				</port>
			</output>
			<blobs>
				<weights offset="27084" size="288"/>
				<biases offset="27372" size="32"/>
			</blobs>
		</layer>
		<layer id="216" name="1746" precision="FP32" type="Convolution">
			<data dilations="1,1" group="8" kernel="3,1" output="8" pads_begin="1,0" pads_end="1,0" strides="1,1"/>
			<input>
				<port id="0">
					<dim>1</dim>
					<dim>8</dim>
					<dim>64</dim>
					<dim>128</dim>
				</port>
			</input>
			<output>
				<port id="3">
					<dim>1</dim>
					<dim>8</dim>
					<dim>64</dim>
					<dim>128</dim>
				</port>
			</output>
			<blobs>
				<weights offset="27404" size="96"/>
				<biases offset="27500" size="32"/>
			</blobs>
		</layer>
		<layer id="217" name="1748" precision="FP32" type="Convolution">
			<data dilations="1,1" group="8" kernel="1,3" output="8" pads_begin="0,1" pads_end="0,1" strides="1,1"/>
			<input>
				<port id="0">
					<dim>1</dim>
					<dim>8</dim>
					<dim>64</dim>
					<dim>128</dim>
				</port>
			</input>
			<output>
				<port id="3">
					<dim>1</dim>
					<dim>8</dim>
					<dim>64</dim>
					<dim>128</dim>
				</port>
			</output>
			<blobs>
				<weights offset="27532" size="96"/>
				<biases offset="27628" size="32"/>
			</blobs>
		</layer>
		<layer id="218" name="1750" precision="FP32" type="Convolution">
			<data dilations="1,1" group="8" kernel="1,3" output="8" pads_begin="0,1" pads_end="0,1" strides="1,1"/>
			<input>
				<port id="0">
					<dim>1</dim>
					<dim>8</dim>
					<dim>64</dim>
					<dim>128</dim>
				</port>
			</input>
			<output>
				<port id="3">
					<dim>1</dim>
					<dim>8</dim>
					<dim>64</dim>
					<dim>128</dim>
				</port>
			</output>
			<blobs>
				<weights offset="27660" size="96"/>
				<biases offset="27756" size="32"/>
			</blobs>
		</layer>
		<layer id="219" name="1752" precision="FP32" type="Convolution">
			<data dilations="1,1" group="8" kernel="3,1" output="8" pads_begin="1,0" pads_end="1,0" strides="1,1"/>
			<input>
				<port id="0">
					<dim>1</dim>
					<dim>8</dim>
					<dim>64</dim>
					<dim>128</dim>
				</port>
			</input>
			<output>
				<port id="3">
					<dim>1</dim>
					<dim>8</dim>
					<dim>64</dim>
					<dim>128</dim>
				</port>
			</output>
			<blobs>
				<weights offset="27788" size="96"/>
				<biases offset="27884" size="32"/>
			</blobs>
		</layer>
		<layer id="220" name="1754" precision="FP32" type="Concat">
			<data axis="1"/>
			<input>
				<port id="0">
					<dim>1</dim>
					<dim>8</dim>
					<dim>64</dim>
					<dim>128</dim>
				</port>
				<port id="1">
					<dim>1</dim>
					<dim>8</dim>
					<dim>64</dim>
					<dim>128</dim>
				</port>
				<port id="2">
					<dim>1</dim>
					<dim>8</dim>
					<dim>64</dim>
					<dim>128</dim>
				</port>
				<port id="3">
					<dim>1</dim>
					<dim>8</dim>
					<dim>64</dim>
					<dim>128</dim>
				</port>
			</input>
			<output>
				<port id="4">
					<dim>1</dim>
					<dim>32</dim>
					<dim>64</dim>
					<dim>128</dim>
				</port>
			</output>
		</layer>
		<layer id="221" name="1775/Output_0/Data__const" precision="I32" type="Const">
			<output>
				<port id="1">
					<dim>5</dim>
				</port>
			</output>
			<blobs>
				<custom offset="7916" size="20"/>
			</blobs>
		</layer>
		<layer id="222" name="1776" precision="FP32" type="Reshape">
			<input>
				<port id="0">
					<dim>1</dim>
					<dim>32</dim>
					<dim>64</dim>
					<dim>128</dim>
				</port>
				<port id="1">
					<dim>5</dim>
				</port>
			</input>
			<output>
				<port id="2">
					<dim>1</dim>
					<dim>4</dim>
					<dim>8</dim>
					<dim>64</dim>
					<dim>128</dim>
				</port>
			</output>
		</layer>
		<layer id="223" name="1777" precision="FP32" type="Permute">
			<data order="0,2,1,3,4"/>
			<input>
				<port id="0">
					<dim>1</dim>
					<dim>4</dim>
					<dim>8</dim>
					<dim>64</dim>
					<dim>128</dim>
				</port>
			</input>
			<output>
				<port id="1">
					<dim>1</dim>
					<dim>8</dim>
					<dim>4</dim>
					<dim>64</dim>
					<dim>128</dim>
				</port>
			</output>
		</layer>
		<layer id="224" name="1782/Output_0/Data__const" precision="I32" type="Const">
			<output>
				<port id="1">
					<dim>4</dim>
				</port>
			</output>
			<blobs>
				<custom offset="7936" size="16"/>
			</blobs>
		</layer>
		<layer id="225" name="1783" precision="FP32" type="Reshape">
			<input>
				<port id="0">
					<dim>1</dim>
					<dim>8</dim>
					<dim>4</dim>
					<dim>64</dim>
					<dim>128</dim>
				</port>
				<port id="1">
					<dim>4</dim>
				</port>
			</input>
			<output>
				<port id="2">
					<dim>1</dim>
					<dim>32</dim>
					<dim>64</dim>
					<dim>128</dim>
				</port>
			</output>
		</layer>
		<layer id="226" name="1784" precision="FP32" type="PReLU">
			<data channel_shared="1"/>
			<input>
				<port id="0">
					<dim>1</dim>
					<dim>32</dim>
					<dim>64</dim>
					<dim>128</dim>
				</port>
			</input>
			<output>
				<port id="2">
					<dim>1</dim>
					<dim>32</dim>
					<dim>64</dim>
					<dim>128</dim>
				</port>
			</output>
			<blobs>
				<weights offset="27916" size="4"/>
			</blobs>
		</layer>
		<layer id="227" name="1785" precision="FP32" type="Convolution">
			<data dilations="1,1" group="8" kernel="1,1" output="32" pads_begin="0,0" pads_end="0,0" strides="1,1"/>
			<input>
				<port id="0">
					<dim>1</dim>
					<dim>32</dim>
					<dim>64</dim>
					<dim>128</dim>
				</port>
			</input>
			<output>
				<port id="3">
					<dim>1</dim>
					<dim>32</dim>
					<dim>64</dim>
					<dim>128</dim>
				</port>
			</output>
			<blobs>
				<weights offset="27920" size="512"/>
				<biases offset="28432" size="128"/>
			</blobs>
		</layer>
		<layer id="228" name="1787" precision="FP32" type="Eltwise">
			<data operation="sum"/>
			<input>
				<port id="0">
					<dim>1</dim>
					<dim>32</dim>
					<dim>64</dim>
					<dim>128</dim>
				</port>
				<port id="1">
					<dim>1</dim>
					<dim>32</dim>
					<dim>64</dim>
					<dim>128</dim>
				</port>
			</input>
			<output>
				<port id="2">
					<dim>1</dim>
					<dim>32</dim>
					<dim>64</dim>
					<dim>128</dim>
				</port>
			</output>
		</layer>
		<layer id="229" name="1788" precision="FP32" type="Convolution">
			<data dilations="1,1" group="1" kernel="1,1" output="8" pads_begin="0,0" pads_end="0,0" strides="1,1"/>
			<input>
				<port id="0">
					<dim>1</dim>
					<dim>32</dim>
					<dim>64</dim>
					<dim>128</dim>
				</port>
			</input>
			<output>
				<port id="3">
					<dim>1</dim>
					<dim>8</dim>
					<dim>64</dim>
					<dim>128</dim>
				</port>
			</output>
			<blobs>
				<weights offset="28560" size="1024"/>
				<biases offset="29584" size="32"/>
			</blobs>
		</layer>
		<layer id="230" name="1790" precision="FP32" type="Convolution">
			<data dilations="1,1" group="8" kernel="3,3" output="8" pads_begin="1,1" pads_end="1,1" strides="1,1"/>
			<input>
				<port id="0">
					<dim>1</dim>
					<dim>8</dim>
					<dim>64</dim>
					<dim>128</dim>
				</port>
			</input>
			<output>
				<port id="3">
					<dim>1</dim>
					<dim>8</dim>
					<dim>64</dim>
					<dim>128</dim>
				</port>
			</output>
			<blobs>
				<weights offset="29616" size="288"/>
				<biases offset="29904" size="32"/>
			</blobs>
		</layer>
		<layer id="231" name="1792" precision="FP32" type="Convolution">
			<data dilations="1,1" group="8" kernel="3,3" output="8" pads_begin="1,1" pads_end="1,1" strides="1,1"/>
			<input>
				<port id="0">
					<dim>1</dim>
					<dim>8</dim>
					<dim>64</dim>
					<dim>128</dim>
				</port>
			</input>
			<output>
				<port id="3">
					<dim>1</dim>
					<dim>8</dim>
					<dim>64</dim>
					<dim>128</dim>
				</port>
			</output>
			<blobs>
				<weights offset="29936" size="288"/>
				<biases offset="30224" size="32"/>
			</blobs>
		</layer>
		<layer id="232" name="1794" precision="FP32" type="Convolution">
			<data dilations="1,1" group="8" kernel="3,1" output="8" pads_begin="1,0" pads_end="1,0" strides="1,1"/>
			<input>
				<port id="0">
					<dim>1</dim>
					<dim>8</dim>
					<dim>64</dim>
					<dim>128</dim>
				</port>
			</input>
			<output>
				<port id="3">
					<dim>1</dim>
					<dim>8</dim>
					<dim>64</dim>
					<dim>128</dim>
				</port>
			</output>
			<blobs>
				<weights offset="30256" size="96"/>
				<biases offset="30352" size="32"/>
			</blobs>
		</layer>
		<layer id="233" name="1796" precision="FP32" type="Convolution">
			<data dilations="1,1" group="8" kernel="1,3" output="8" pads_begin="0,1" pads_end="0,1" strides="1,1"/>
			<input>
				<port id="0">
					<dim>1</dim>
					<dim>8</dim>
					<dim>64</dim>
					<dim>128</dim>
				</port>
			</input>
			<output>
				<port id="3">
					<dim>1</dim>
					<dim>8</dim>
					<dim>64</dim>
					<dim>128</dim>
				</port>
			</output>
			<blobs>
				<weights offset="30384" size="96"/>
				<biases offset="30480" size="32"/>
			</blobs>
		</layer>
		<layer id="234" name="1798" precision="FP32" type="Convolution">
			<data dilations="1,1" group="8" kernel="1,3" output="8" pads_begin="0,1" pads_end="0,1" strides="1,1"/>
			<input>
				<port id="0">
					<dim>1</dim>
					<dim>8</dim>
					<dim>64</dim>
					<dim>128</dim>
				</port>
			</input>
			<output>
				<port id="3">
					<dim>1</dim>
					<dim>8</dim>
					<dim>64</dim>
					<dim>128</dim>
				</port>
			</output>
			<blobs>
				<weights offset="30512" size="96"/>
				<biases offset="30608" size="32"/>
			</blobs>
		</layer>
		<layer id="235" name="1800" precision="FP32" type="Convolution">
			<data dilations="1,1" group="8" kernel="3,1" output="8" pads_begin="1,0" pads_end="1,0" strides="1,1"/>
			<input>
				<port id="0">
					<dim>1</dim>
					<dim>8</dim>
					<dim>64</dim>
					<dim>128</dim>
				</port>
			</input>
			<output>
				<port id="3">
					<dim>1</dim>
					<dim>8</dim>
					<dim>64</dim>
					<dim>128</dim>
				</port>
			</output>
			<blobs>
				<weights offset="30640" size="96"/>
				<biases offset="30736" size="32"/>
			</blobs>
		</layer>
		<layer id="236" name="1802" precision="FP32" type="Concat">
			<data axis="1"/>
			<input>
				<port id="0">
					<dim>1</dim>
					<dim>8</dim>
					<dim>64</dim>
					<dim>128</dim>
				</port>
				<port id="1">
					<dim>1</dim>
					<dim>8</dim>
					<dim>64</dim>
					<dim>128</dim>
				</port>
				<port id="2">
					<dim>1</dim>
					<dim>8</dim>
					<dim>64</dim>
					<dim>128</dim>
				</port>
				<port id="3">
					<dim>1</dim>
					<dim>8</dim>
					<dim>64</dim>
					<dim>128</dim>
				</port>
			</input>
			<output>
				<port id="4">
					<dim>1</dim>
					<dim>32</dim>
					<dim>64</dim>
					<dim>128</dim>
				</port>
			</output>
		</layer>
		<layer id="237" name="1823/Output_0/Data__const" precision="I32" type="Const">
			<output>
				<port id="1">
					<dim>5</dim>
				</port>
			</output>
			<blobs>
				<custom offset="7916" size="20"/>
			</blobs>
		</layer>
		<layer id="238" name="1824" precision="FP32" type="Reshape">
			<input>
				<port id="0">
					<dim>1</dim>
					<dim>32</dim>
					<dim>64</dim>
					<dim>128</dim>
				</port>
				<port id="1">
					<dim>5</dim>
				</port>
			</input>
			<output>
				<port id="2">
					<dim>1</dim>
					<dim>4</dim>
					<dim>8</dim>
					<dim>64</dim>
					<dim>128</dim>
				</port>
			</output>
		</layer>
		<layer id="239" name="1825" precision="FP32" type="Permute">
			<data order="0,2,1,3,4"/>
			<input>
				<port id="0">
					<dim>1</dim>
					<dim>4</dim>
					<dim>8</dim>
					<dim>64</dim>
					<dim>128</dim>
				</port>
			</input>
			<output>
				<port id="1">
					<dim>1</dim>
					<dim>8</dim>
					<dim>4</dim>
					<dim>64</dim>
					<dim>128</dim>
				</port>
			</output>
		</layer>
		<layer id="240" name="1830/Output_0/Data__const" precision="I32" type="Const">
			<output>
				<port id="1">
					<dim>4</dim>
				</port>
			</output>
			<blobs>
				<custom offset="7936" size="16"/>
			</blobs>
		</layer>
		<layer id="241" name="1831" precision="FP32" type="Reshape">
			<input>
				<port id="0">
					<dim>1</dim>
					<dim>8</dim>
					<dim>4</dim>
					<dim>64</dim>
					<dim>128</dim>
				</port>
				<port id="1">
					<dim>4</dim>
				</port>
			</input>
			<output>
				<port id="2">
					<dim>1</dim>
					<dim>32</dim>
					<dim>64</dim>
					<dim>128</dim>
				</port>
			</output>
		</layer>
		<layer id="242" name="1832" precision="FP32" type="PReLU">
			<data channel_shared="1"/>
			<input>
				<port id="0">
					<dim>1</dim>
					<dim>32</dim>
					<dim>64</dim>
					<dim>128</dim>
				</port>
			</input>
			<output>
				<port id="2">
					<dim>1</dim>
					<dim>32</dim>
					<dim>64</dim>
					<dim>128</dim>
				</port>
			</output>
			<blobs>
				<weights offset="30768" size="4"/>
			</blobs>
		</layer>
		<layer id="243" name="1833" precision="FP32" type="Convolution">
			<data dilations="1,1" group="8" kernel="1,1" output="32" pads_begin="0,0" pads_end="0,0" strides="1,1"/>
			<input>
				<port id="0">
					<dim>1</dim>
					<dim>32</dim>
					<dim>64</dim>
					<dim>128</dim>
				</port>
			</input>
			<output>
				<port id="3">
					<dim>1</dim>
					<dim>32</dim>
					<dim>64</dim>
					<dim>128</dim>
				</port>
			</output>
			<blobs>
				<weights offset="30772" size="512"/>
				<biases offset="31284" size="128"/>
			</blobs>
		</layer>
		<layer id="244" name="1835" precision="FP32" type="Eltwise">
			<data operation="sum"/>
			<input>
				<port id="0">
					<dim>1</dim>
					<dim>32</dim>
					<dim>64</dim>
					<dim>128</dim>
				</port>
				<port id="1">
					<dim>1</dim>
					<dim>32</dim>
					<dim>64</dim>
					<dim>128</dim>
				</port>
			</input>
			<output>
				<port id="2">
					<dim>1</dim>
					<dim>32</dim>
					<dim>64</dim>
					<dim>128</dim>
				</port>
			</output>
		</layer>
		<layer id="245" name="1836" precision="FP32" type="Convolution">
			<data dilations="1,1" group="1" kernel="1,1" output="8" pads_begin="0,0" pads_end="0,0" strides="1,1"/>
			<input>
				<port id="0">
					<dim>1</dim>
					<dim>32</dim>
					<dim>64</dim>
					<dim>128</dim>
				</port>
			</input>
			<output>
				<port id="3">
					<dim>1</dim>
					<dim>8</dim>
					<dim>64</dim>
					<dim>128</dim>
				</port>
			</output>
			<blobs>
				<weights offset="31412" size="1024"/>
				<biases offset="32436" size="32"/>
			</blobs>
		</layer>
		<layer id="246" name="1838" precision="FP32" type="Convolution">
			<data dilations="1,1" group="8" kernel="3,3" output="8" pads_begin="1,1" pads_end="1,1" strides="1,1"/>
			<input>
				<port id="0">
					<dim>1</dim>
					<dim>8</dim>
					<dim>64</dim>
					<dim>128</dim>
				</port>
			</input>
			<output>
				<port id="3">
					<dim>1</dim>
					<dim>8</dim>
					<dim>64</dim>
					<dim>128</dim>
				</port>
			</output>
			<blobs>
				<weights offset="32468" size="288"/>
				<biases offset="32756" size="32"/>
			</blobs>
		</layer>
		<layer id="247" name="1840" precision="FP32" type="Convolution">
			<data dilations="1,1" group="8" kernel="3,3" output="8" pads_begin="1,1" pads_end="1,1" strides="1,1"/>
			<input>
				<port id="0">
					<dim>1</dim>
					<dim>8</dim>
					<dim>64</dim>
					<dim>128</dim>
				</port>
			</input>
			<output>
				<port id="3">
					<dim>1</dim>
					<dim>8</dim>
					<dim>64</dim>
					<dim>128</dim>
				</port>
			</output>
			<blobs>
				<weights offset="32788" size="288"/>
				<biases offset="33076" size="32"/>
			</blobs>
		</layer>
		<layer id="248" name="1842" precision="FP32" type="Convolution">
			<data dilations="1,1" group="8" kernel="3,1" output="8" pads_begin="1,0" pads_end="1,0" strides="1,1"/>
			<input>
				<port id="0">
					<dim>1</dim>
					<dim>8</dim>
					<dim>64</dim>
					<dim>128</dim>
				</port>
			</input>
			<output>
				<port id="3">
					<dim>1</dim>
					<dim>8</dim>
					<dim>64</dim>
					<dim>128</dim>
				</port>
			</output>
			<blobs>
				<weights offset="33108" size="96"/>
				<biases offset="33204" size="32"/>
			</blobs>
		</layer>
		<layer id="249" name="1844" precision="FP32" type="Convolution">
			<data dilations="1,1" group="8" kernel="1,3" output="8" pads_begin="0,1" pads_end="0,1" strides="1,1"/>
			<input>
				<port id="0">
					<dim>1</dim>
					<dim>8</dim>
					<dim>64</dim>
					<dim>128</dim>
				</port>
			</input>
			<output>
				<port id="3">
					<dim>1</dim>
					<dim>8</dim>
					<dim>64</dim>
					<dim>128</dim>
				</port>
			</output>
			<blobs>
				<weights offset="33236" size="96"/>
				<biases offset="33332" size="32"/>
			</blobs>
		</layer>
		<layer id="250" name="1846" precision="FP32" type="Convolution">
			<data dilations="1,1" group="8" kernel="1,3" output="8" pads_begin="0,1" pads_end="0,1" strides="1,1"/>
			<input>
				<port id="0">
					<dim>1</dim>
					<dim>8</dim>
					<dim>64</dim>
					<dim>128</dim>
				</port>
			</input>
			<output>
				<port id="3">
					<dim>1</dim>
					<dim>8</dim>
					<dim>64</dim>
					<dim>128</dim>
				</port>
			</output>
			<blobs>
				<weights offset="33364" size="96"/>
				<biases offset="33460" size="32"/>
			</blobs>
		</layer>
		<layer id="251" name="1848" precision="FP32" type="Convolution">
			<data dilations="1,1" group="8" kernel="3,1" output="8" pads_begin="1,0" pads_end="1,0" strides="1,1"/>
			<input>
				<port id="0">
					<dim>1</dim>
					<dim>8</dim>
					<dim>64</dim>
					<dim>128</dim>
				</port>
			</input>
			<output>
				<port id="3">
					<dim>1</dim>
					<dim>8</dim>
					<dim>64</dim>
					<dim>128</dim>
				</port>
			</output>
			<blobs>
				<weights offset="33492" size="96"/>
				<biases offset="33588" size="32"/>
			</blobs>
		</layer>
		<layer id="252" name="1850" precision="FP32" type="Concat">
			<data axis="1"/>
			<input>
				<port id="0">
					<dim>1</dim>
					<dim>8</dim>
					<dim>64</dim>
					<dim>128</dim>
				</port>
				<port id="1">
					<dim>1</dim>
					<dim>8</dim>
					<dim>64</dim>
					<dim>128</dim>
				</port>
				<port id="2">
					<dim>1</dim>
					<dim>8</dim>
					<dim>64</dim>
					<dim>128</dim>
				</port>
				<port id="3">
					<dim>1</dim>
					<dim>8</dim>
					<dim>64</dim>
					<dim>128</dim>
				</port>
			</input>
			<output>
				<port id="4">
					<dim>1</dim>
					<dim>32</dim>
					<dim>64</dim>
					<dim>128</dim>
				</port>
			</output>
		</layer>
		<layer id="253" name="1871/Output_0/Data__const" precision="I32" type="Const">
			<output>
				<port id="1">
					<dim>5</dim>
				</port>
			</output>
			<blobs>
				<custom offset="7916" size="20"/>
			</blobs>
		</layer>
		<layer id="254" name="1872" precision="FP32" type="Reshape">
			<input>
				<port id="0">
					<dim>1</dim>
					<dim>32</dim>
					<dim>64</dim>
					<dim>128</dim>
				</port>
				<port id="1">
					<dim>5</dim>
				</port>
			</input>
			<output>
				<port id="2">
					<dim>1</dim>
					<dim>4</dim>
					<dim>8</dim>
					<dim>64</dim>
					<dim>128</dim>
				</port>
			</output>
		</layer>
		<layer id="255" name="1873" precision="FP32" type="Permute">
			<data order="0,2,1,3,4"/>
			<input>
				<port id="0">
					<dim>1</dim>
					<dim>4</dim>
					<dim>8</dim>
					<dim>64</dim>
					<dim>128</dim>
				</port>
			</input>
			<output>
				<port id="1">
					<dim>1</dim>
					<dim>8</dim>
					<dim>4</dim>
					<dim>64</dim>
					<dim>128</dim>
				</port>
			</output>
		</layer>
		<layer id="256" name="1878/Output_0/Data__const" precision="I32" type="Const">
			<output>
				<port id="1">
					<dim>4</dim>
				</port>
			</output>
			<blobs>
				<custom offset="7936" size="16"/>
			</blobs>
		</layer>
		<layer id="257" name="1879" precision="FP32" type="Reshape">
			<input>
				<port id="0">
					<dim>1</dim>
					<dim>8</dim>
					<dim>4</dim>
					<dim>64</dim>
					<dim>128</dim>
				</port>
				<port id="1">
					<dim>4</dim>
				</port>
			</input>
			<output>
				<port id="2">
					<dim>1</dim>
					<dim>32</dim>
					<dim>64</dim>
					<dim>128</dim>
				</port>
			</output>
		</layer>
		<layer id="258" name="1880" precision="FP32" type="PReLU">
			<data channel_shared="1"/>
			<input>
				<port id="0">
					<dim>1</dim>
					<dim>32</dim>
					<dim>64</dim>
					<dim>128</dim>
				</port>
			</input>
			<output>
				<port id="2">
					<dim>1</dim>
					<dim>32</dim>
					<dim>64</dim>
					<dim>128</dim>
				</port>
			</output>
			<blobs>
				<weights offset="33620" size="4"/>
			</blobs>
		</layer>
		<layer id="259" name="1881" precision="FP32" type="Convolution">
			<data dilations="1,1" group="8" kernel="1,1" output="32" pads_begin="0,0" pads_end="0,0" strides="1,1"/>
			<input>
				<port id="0">
					<dim>1</dim>
					<dim>32</dim>
					<dim>64</dim>
					<dim>128</dim>
				</port>
			</input>
			<output>
				<port id="3">
					<dim>1</dim>
					<dim>32</dim>
					<dim>64</dim>
					<dim>128</dim>
				</port>
			</output>
			<blobs>
				<weights offset="33624" size="512"/>
				<biases offset="34136" size="128"/>
			</blobs>
		</layer>
		<layer id="260" name="1883" precision="FP32" type="Eltwise">
			<data operation="sum"/>
			<input>
				<port id="0">
					<dim>1</dim>
					<dim>32</dim>
					<dim>64</dim>
					<dim>128</dim>
				</port>
				<port id="1">
					<dim>1</dim>
					<dim>32</dim>
					<dim>64</dim>
					<dim>128</dim>
				</port>
			</input>
			<output>
				<port id="2">
					<dim>1</dim>
					<dim>32</dim>
					<dim>64</dim>
					<dim>128</dim>
				</port>
			</output>
		</layer>
		<layer id="261" name="1884" precision="FP32" type="Convolution">
			<data dilations="1,1" group="1" kernel="1,1" output="8" pads_begin="0,0" pads_end="0,0" strides="1,1"/>
			<input>
				<port id="0">
					<dim>1</dim>
					<dim>32</dim>
					<dim>64</dim>
					<dim>128</dim>
				</port>
			</input>
			<output>
				<port id="3">
					<dim>1</dim>
					<dim>8</dim>
					<dim>64</dim>
					<dim>128</dim>
				</port>
			</output>
			<blobs>
				<weights offset="34264" size="1024"/>
				<biases offset="35288" size="32"/>
			</blobs>
		</layer>
		<layer id="262" name="1886" precision="FP32" type="Convolution">
			<data dilations="1,1" group="8" kernel="3,3" output="8" pads_begin="1,1" pads_end="1,1" strides="1,1"/>
			<input>
				<port id="0">
					<dim>1</dim>
					<dim>8</dim>
					<dim>64</dim>
					<dim>128</dim>
				</port>
			</input>
			<output>
				<port id="3">
					<dim>1</dim>
					<dim>8</dim>
					<dim>64</dim>
					<dim>128</dim>
				</port>
			</output>
			<blobs>
				<weights offset="35320" size="288"/>
				<biases offset="35608" size="32"/>
			</blobs>
		</layer>
		<layer id="263" name="1888" precision="FP32" type="Convolution">
			<data dilations="1,1" group="8" kernel="3,3" output="8" pads_begin="1,1" pads_end="1,1" strides="1,1"/>
			<input>
				<port id="0">
					<dim>1</dim>
					<dim>8</dim>
					<dim>64</dim>
					<dim>128</dim>
				</port>
			</input>
			<output>
				<port id="3">
					<dim>1</dim>
					<dim>8</dim>
					<dim>64</dim>
					<dim>128</dim>
				</port>
			</output>
			<blobs>
				<weights offset="35640" size="288"/>
				<biases offset="35928" size="32"/>
			</blobs>
		</layer>
		<layer id="264" name="1890" precision="FP32" type="Convolution">
			<data dilations="1,1" group="8" kernel="3,1" output="8" pads_begin="1,0" pads_end="1,0" strides="1,1"/>
			<input>
				<port id="0">
					<dim>1</dim>
					<dim>8</dim>
					<dim>64</dim>
					<dim>128</dim>
				</port>
			</input>
			<output>
				<port id="3">
					<dim>1</dim>
					<dim>8</dim>
					<dim>64</dim>
					<dim>128</dim>
				</port>
			</output>
			<blobs>
				<weights offset="35960" size="96"/>
				<biases offset="36056" size="32"/>
			</blobs>
		</layer>
		<layer id="265" name="1892" precision="FP32" type="Convolution">
			<data dilations="1,1" group="8" kernel="1,3" output="8" pads_begin="0,1" pads_end="0,1" strides="1,1"/>
			<input>
				<port id="0">
					<dim>1</dim>
					<dim>8</dim>
					<dim>64</dim>
					<dim>128</dim>
				</port>
			</input>
			<output>
				<port id="3">
					<dim>1</dim>
					<dim>8</dim>
					<dim>64</dim>
					<dim>128</dim>
				</port>
			</output>
			<blobs>
				<weights offset="36088" size="96"/>
				<biases offset="36184" size="32"/>
			</blobs>
		</layer>
		<layer id="266" name="1894" precision="FP32" type="Convolution">
			<data dilations="1,1" group="8" kernel="1,3" output="8" pads_begin="0,1" pads_end="0,1" strides="1,1"/>
			<input>
				<port id="0">
					<dim>1</dim>
					<dim>8</dim>
					<dim>64</dim>
					<dim>128</dim>
				</port>
			</input>
			<output>
				<port id="3">
					<dim>1</dim>
					<dim>8</dim>
					<dim>64</dim>
					<dim>128</dim>
				</port>
			</output>
			<blobs>
				<weights offset="36216" size="96"/>
				<biases offset="36312" size="32"/>
			</blobs>
		</layer>
		<layer id="267" name="1896" precision="FP32" type="Convolution">
			<data dilations="1,1" group="8" kernel="3,1" output="8" pads_begin="1,0" pads_end="1,0" strides="1,1"/>
			<input>
				<port id="0">
					<dim>1</dim>
					<dim>8</dim>
					<dim>64</dim>
					<dim>128</dim>
				</port>
			</input>
			<output>
				<port id="3">
					<dim>1</dim>
					<dim>8</dim>
					<dim>64</dim>
					<dim>128</dim>
				</port>
			</output>
			<blobs>
				<weights offset="36344" size="96"/>
				<biases offset="36440" size="32"/>
			</blobs>
		</layer>
		<layer id="268" name="1898" precision="FP32" type="Concat">
			<data axis="1"/>
			<input>
				<port id="0">
					<dim>1</dim>
					<dim>8</dim>
					<dim>64</dim>
					<dim>128</dim>
				</port>
				<port id="1">
					<dim>1</dim>
					<dim>8</dim>
					<dim>64</dim>
					<dim>128</dim>
				</port>
				<port id="2">
					<dim>1</dim>
					<dim>8</dim>
					<dim>64</dim>
					<dim>128</dim>
				</port>
				<port id="3">
					<dim>1</dim>
					<dim>8</dim>
					<dim>64</dim>
					<dim>128</dim>
				</port>
			</input>
			<output>
				<port id="4">
					<dim>1</dim>
					<dim>32</dim>
					<dim>64</dim>
					<dim>128</dim>
				</port>
			</output>
		</layer>
		<layer id="269" name="1919/Output_0/Data__const" precision="I32" type="Const">
			<output>
				<port id="1">
					<dim>5</dim>
				</port>
			</output>
			<blobs>
				<custom offset="7916" size="20"/>
			</blobs>
		</layer>
		<layer id="270" name="1920" precision="FP32" type="Reshape">
			<input>
				<port id="0">
					<dim>1</dim>
					<dim>32</dim>
					<dim>64</dim>
					<dim>128</dim>
				</port>
				<port id="1">
					<dim>5</dim>
				</port>
			</input>
			<output>
				<port id="2">
					<dim>1</dim>
					<dim>4</dim>
					<dim>8</dim>
					<dim>64</dim>
					<dim>128</dim>
				</port>
			</output>
		</layer>
		<layer id="271" name="1921" precision="FP32" type="Permute">
			<data order="0,2,1,3,4"/>
			<input>
				<port id="0">
					<dim>1</dim>
					<dim>4</dim>
					<dim>8</dim>
					<dim>64</dim>
					<dim>128</dim>
				</port>
			</input>
			<output>
				<port id="1">
					<dim>1</dim>
					<dim>8</dim>
					<dim>4</dim>
					<dim>64</dim>
					<dim>128</dim>
				</port>
			</output>
		</layer>
		<layer id="272" name="1926/Output_0/Data__const" precision="I32" type="Const">
			<output>
				<port id="1">
					<dim>4</dim>
				</port>
			</output>
			<blobs>
				<custom offset="7936" size="16"/>
			</blobs>
		</layer>
		<layer id="273" name="1927" precision="FP32" type="Reshape">
			<input>
				<port id="0">
					<dim>1</dim>
					<dim>8</dim>
					<dim>4</dim>
					<dim>64</dim>
					<dim>128</dim>
				</port>
				<port id="1">
					<dim>4</dim>
				</port>
			</input>
			<output>
				<port id="2">
					<dim>1</dim>
					<dim>32</dim>
					<dim>64</dim>
					<dim>128</dim>
				</port>
			</output>
		</layer>
		<layer id="274" name="1928" precision="FP32" type="PReLU">
			<data channel_shared="1"/>
			<input>
				<port id="0">
					<dim>1</dim>
					<dim>32</dim>
					<dim>64</dim>
					<dim>128</dim>
				</port>
			</input>
			<output>
				<port id="2">
					<dim>1</dim>
					<dim>32</dim>
					<dim>64</dim>
					<dim>128</dim>
				</port>
			</output>
			<blobs>
				<weights offset="36472" size="4"/>
			</blobs>
		</layer>
		<layer id="275" name="1929" precision="FP32" type="Convolution">
			<data dilations="1,1" group="8" kernel="1,1" output="32" pads_begin="0,0" pads_end="0,0" strides="1,1"/>
			<input>
				<port id="0">
					<dim>1</dim>
					<dim>32</dim>
					<dim>64</dim>
					<dim>128</dim>
				</port>
			</input>
			<output>
				<port id="3">
					<dim>1</dim>
					<dim>32</dim>
					<dim>64</dim>
					<dim>128</dim>
				</port>
			</output>
			<blobs>
				<weights offset="36476" size="512"/>
				<biases offset="36988" size="128"/>
			</blobs>
		</layer>
		<layer id="276" name="1931" precision="FP32" type="Eltwise">
			<data operation="sum"/>
			<input>
				<port id="0">
					<dim>1</dim>
					<dim>32</dim>
					<dim>64</dim>
					<dim>128</dim>
				</port>
				<port id="1">
					<dim>1</dim>
					<dim>32</dim>
					<dim>64</dim>
					<dim>128</dim>
				</port>
			</input>
			<output>
				<port id="2">
					<dim>1</dim>
					<dim>32</dim>
					<dim>64</dim>
					<dim>128</dim>
				</port>
			</output>
		</layer>
		<layer id="277" name="1932" precision="FP32" type="Convolution">
			<data dilations="1,1" group="1" kernel="3,3" output="16" pads_begin="1,1" pads_end="1,1" strides="1,1"/>
			<input>
				<port id="0">
					<dim>1</dim>
					<dim>32</dim>
					<dim>64</dim>
					<dim>128</dim>
				</port>
			</input>
			<output>
				<port id="3">
					<dim>1</dim>
					<dim>16</dim>
					<dim>64</dim>
					<dim>128</dim>
				</port>
			</output>
			<blobs>
				<weights offset="37116" size="18432"/>
				<biases offset="55548" size="64"/>
			</blobs>
		</layer>
		<layer id="278" name="Interpolate/1941" precision="FP32" type="Resample">
			<data antialias="0" factor="2.0" height="0" type="caffe.ResampleParameter.NEAREST" width="0"/>
			<input>
				<port id="0">
					<dim>1</dim>
					<dim>16</dim>
					<dim>64</dim>
					<dim>128</dim>
				</port>
			</input>
			<output>
				<port id="1">
					<dim>1</dim>
					<dim>16</dim>
					<dim>128</dim>
					<dim>256</dim>
				</port>
			</output>
		</layer>
		<layer id="279" name="1934" precision="FP32" type="Convolution">
			<data dilations="1,1" group="1" kernel="1,1" output="8" pads_begin="0,0" pads_end="0,0" strides="1,1"/>
			<input>
				<port id="0">
					<dim>1</dim>
					<dim>32</dim>
					<dim>64</dim>
					<dim>128</dim>
				</port>
			</input>
			<output>
				<port id="3">
					<dim>1</dim>
					<dim>8</dim>
					<dim>64</dim>
					<dim>128</dim>
				</port>
			</output>
			<blobs>
				<weights offset="55612" size="1024"/>
				<biases offset="56636" size="32"/>
			</blobs>
		</layer>
		<layer id="280" name="1936" precision="FP32" type="Deconvolution">
			<data dilations="1,1" group="1" kernel="3,3" output="8" pads_begin="1,1" pads_end="0,0" strides="2,2"/>
			<input>
				<port id="0">
					<dim>1</dim>
					<dim>8</dim>
					<dim>64</dim>
					<dim>128</dim>
				</port>
			</input>
			<output>
				<port id="3">
					<dim>1</dim>
					<dim>8</dim>
					<dim>128</dim>
					<dim>256</dim>
				</port>
			</output>
			<blobs>
				<weights offset="56668" size="2304"/>
				<biases offset="58972" size="32"/>
			</blobs>
		</layer>
		<layer id="281" name="1938" precision="FP32" type="Convolution">
			<data dilations="1,1" group="1" kernel="1,1" output="16" pads_begin="0,0" pads_end="0,0" strides="1,1"/>
			<input>
				<port id="0">
					<dim>1</dim>
					<dim>8</dim>
					<dim>128</dim>
					<dim>256</dim>
				</port>
			</input>
			<output>
				<port id="3">
					<dim>1</dim>
					<dim>16</dim>
					<dim>128</dim>
					<dim>256</dim>
				</port>
			</output>
			<blobs>
				<weights offset="59004" size="512"/>
				<biases offset="59516" size="64"/>
			</blobs>
		</layer>
		<layer id="282" name="1942" precision="FP32" type="Eltwise">
			<data operation="sum"/>
			<input>
				<port id="0">
					<dim>1</dim>
					<dim>16</dim>
					<dim>128</dim>
					<dim>256</dim>
				</port>
				<port id="1">
					<dim>1</dim>
					<dim>16</dim>
					<dim>128</dim>
					<dim>256</dim>
				</port>
			</input>
			<output>
				<port id="2">
					<dim>1</dim>
					<dim>16</dim>
					<dim>128</dim>
					<dim>256</dim>
				</port>
			</output>
		</layer>
		<layer id="283" name="1943" precision="FP32" type="PReLU">
			<data channel_shared="1"/>
			<input>
				<port id="0">
					<dim>1</dim>
					<dim>16</dim>
					<dim>128</dim>
					<dim>256</dim>
				</port>
			</input>
			<output>
				<port id="2">
					<dim>1</dim>
					<dim>16</dim>
					<dim>128</dim>
					<dim>256</dim>
				</port>
			</output>
			<blobs>
				<weights offset="59580" size="4"/>
			</blobs>
		</layer>
		<layer id="284" name="1944" precision="FP32" type="Convolution">
			<data dilations="1,1" group="1" kernel="1,1" output="4" pads_begin="0,0" pads_end="0,0" strides="1,1"/>
			<input>
				<port id="0">
					<dim>1</dim>
					<dim>16</dim>
					<dim>128</dim>
					<dim>256</dim>
				</port>
			</input>
			<output>
				<port id="3">
					<dim>1</dim>
					<dim>4</dim>
					<dim>128</dim>
					<dim>256</dim>
				</port>
			</output>
			<blobs>
				<weights offset="59584" size="256"/>
				<biases offset="59840" size="16"/>
			</blobs>
		</layer>
		<layer id="285" name="1946" precision="FP32" type="Convolution">
			<data dilations="1,1" group="4" kernel="3,3" output="4" pads_begin="1,1" pads_end="1,1" strides="1,1"/>
			<input>
				<port id="0">
					<dim>1</dim>
					<dim>4</dim>
					<dim>128</dim>
					<dim>256</dim>
				</port>
			</input>
			<output>
				<port id="3">
					<dim>1</dim>
					<dim>4</dim>
					<dim>128</dim>
					<dim>256</dim>
				</port>
			</output>
			<blobs>
				<weights offset="59856" size="144"/>
				<biases offset="60000" size="16"/>
			</blobs>
		</layer>
		<layer id="286" name="1948" precision="FP32" type="Convolution">
			<data dilations="1,1" group="4" kernel="3,3" output="4" pads_begin="1,1" pads_end="1,1" strides="1,1"/>
			<input>
				<port id="0">
					<dim>1</dim>
					<dim>4</dim>
					<dim>128</dim>
					<dim>256</dim>
				</port>
			</input>
			<output>
				<port id="3">
					<dim>1</dim>
					<dim>4</dim>
					<dim>128</dim>
					<dim>256</dim>
				</port>
			</output>
			<blobs>
				<weights offset="60016" size="144"/>
				<biases offset="60160" size="16"/>
			</blobs>
		</layer>
		<layer id="287" name="1950" precision="FP32" type="Convolution">
			<data dilations="1,1" group="4" kernel="3,1" output="4" pads_begin="1,0" pads_end="1,0" strides="1,1"/>
			<input>
				<port id="0">
					<dim>1</dim>
					<dim>4</dim>
					<dim>128</dim>
					<dim>256</dim>
				</port>
			</input>
			<output>
				<port id="3">
					<dim>1</dim>
					<dim>4</dim>
					<dim>128</dim>
					<dim>256</dim>
				</port>
			</output>
			<blobs>
				<weights offset="60176" size="48"/>
				<biases offset="60224" size="16"/>
			</blobs>
		</layer>
		<layer id="288" name="1952" precision="FP32" type="Convolution">
			<data dilations="1,1" group="4" kernel="1,3" output="4" pads_begin="0,1" pads_end="0,1" strides="1,1"/>
			<input>
				<port id="0">
					<dim>1</dim>
					<dim>4</dim>
					<dim>128</dim>
					<dim>256</dim>
				</port>
			</input>
			<output>
				<port id="3">
					<dim>1</dim>
					<dim>4</dim>
					<dim>128</dim>
					<dim>256</dim>
				</port>
			</output>
			<blobs>
				<weights offset="60240" size="48"/>
				<biases offset="60288" size="16"/>
			</blobs>
		</layer>
		<layer id="289" name="1954" precision="FP32" type="Convolution">
			<data dilations="1,1" group="4" kernel="1,3" output="4" pads_begin="0,1" pads_end="0,1" strides="1,1"/>
			<input>
				<port id="0">
					<dim>1</dim>
					<dim>4</dim>
					<dim>128</dim>
					<dim>256</dim>
				</port>
			</input>
			<output>
				<port id="3">
					<dim>1</dim>
					<dim>4</dim>
					<dim>128</dim>
					<dim>256</dim>
				</port>
			</output>
			<blobs>
				<weights offset="60304" size="48"/>
				<biases offset="60352" size="16"/>
			</blobs>
		</layer>
		<layer id="290" name="1956" precision="FP32" type="Convolution">
			<data dilations="1,1" group="4" kernel="3,1" output="4" pads_begin="1,0" pads_end="1,0" strides="1,1"/>
			<input>
				<port id="0">
					<dim>1</dim>
					<dim>4</dim>
					<dim>128</dim>
					<dim>256</dim>
				</port>
			</input>
			<output>
				<port id="3">
					<dim>1</dim>
					<dim>4</dim>
					<dim>128</dim>
					<dim>256</dim>
				</port>
			</output>
			<blobs>
				<weights offset="60368" size="48"/>
				<biases offset="60416" size="16"/>
			</blobs>
		</layer>
		<layer id="291" name="1958" precision="FP32" type="Concat">
			<data axis="1"/>
			<input>
				<port id="0">
					<dim>1</dim>
					<dim>4</dim>
					<dim>128</dim>
					<dim>256</dim>
				</port>
				<port id="1">
					<dim>1</dim>
					<dim>4</dim>
					<dim>128</dim>
					<dim>256</dim>
				</port>
				<port id="2">
					<dim>1</dim>
					<dim>4</dim>
					<dim>128</dim>
					<dim>256</dim>
				</port>
				<port id="3">
					<dim>1</dim>
					<dim>4</dim>
					<dim>128</dim>
					<dim>256</dim>
				</port>
			</input>
			<output>
				<port id="4">
					<dim>1</dim>
					<dim>16</dim>
					<dim>128</dim>
					<dim>256</dim>
				</port>
			</output>
		</layer>
		<layer id="292" name="1979/Output_0/Data__const" precision="I32" type="Const">
			<output>
				<port id="1">
					<dim>5</dim>
				</port>
			</output>
			<blobs>
				<custom offset="1620" size="20"/>
			</blobs>
		</layer>
		<layer id="293" name="1980" precision="FP32" type="Reshape">
			<input>
				<port id="0">
					<dim>1</dim>
					<dim>16</dim>
					<dim>128</dim>
					<dim>256</dim>
				</port>
				<port id="1">
					<dim>5</dim>
				</port>
			</input>
			<output>
				<port id="2">
					<dim>1</dim>
					<dim>4</dim>
					<dim>4</dim>
					<dim>128</dim>
					<dim>256</dim>
				</port>
			</output>
		</layer>
		<layer id="294" name="1981" precision="FP32" type="Permute">
			<data order="0,2,1,3,4"/>
			<input>
				<port id="0">
					<dim>1</dim>
					<dim>4</dim>
					<dim>4</dim>
					<dim>128</dim>
					<dim>256</dim>
				</port>
			</input>
			<output>
				<port id="1">
					<dim>1</dim>
					<dim>4</dim>
					<dim>4</dim>
					<dim>128</dim>
					<dim>256</dim>
				</port>
			</output>
		</layer>
		<layer id="295" name="1986/Output_0/Data__const" precision="I32" type="Const">
			<output>
				<port id="1">
					<dim>4</dim>
				</port>
			</output>
			<blobs>
				<custom offset="1640" size="16"/>
			</blobs>
		</layer>
		<layer id="296" name="1987" precision="FP32" type="Reshape">
			<input>
				<port id="0">
					<dim>1</dim>
					<dim>4</dim>
					<dim>4</dim>
					<dim>128</dim>
					<dim>256</dim>
				</port>
				<port id="1">
					<dim>4</dim>
				</port>
			</input>
			<output>
				<port id="2">
					<dim>1</dim>
					<dim>16</dim>
					<dim>128</dim>
					<dim>256</dim>
				</port>
			</output>
		</layer>
		<layer id="297" name="1988" precision="FP32" type="PReLU">
			<data channel_shared="1"/>
			<input>
				<port id="0">
					<dim>1</dim>
					<dim>16</dim>
					<dim>128</dim>
					<dim>256</dim>
				</port>
			</input>
			<output>
				<port id="2">
					<dim>1</dim>
					<dim>16</dim>
					<dim>128</dim>
					<dim>256</dim>
				</port>
			</output>
			<blobs>
				<weights offset="60432" size="4"/>
			</blobs>
		</layer>
		<layer id="298" name="1989" precision="FP32" type="Convolution">
			<data dilations="1,1" group="4" kernel="1,1" output="16" pads_begin="0,0" pads_end="0,0" strides="1,1"/>
			<input>
				<port id="0">
					<dim>1</dim>
					<dim>16</dim>
					<dim>128</dim>
					<dim>256</dim>
				</port>
			</input>
			<output>
				<port id="3">
					<dim>1</dim>
					<dim>16</dim>
					<dim>128</dim>
					<dim>256</dim>
				</port>
			</output>
			<blobs>
				<weights offset="60436" size="256"/>
				<biases offset="60692" size="64"/>
			</blobs>
		</layer>
		<layer id="299" name="1991" precision="FP32" type="Eltwise">
			<data operation="sum"/>
			<input>
				<port id="0">
					<dim>1</dim>
					<dim>16</dim>
					<dim>128</dim>
					<dim>256</dim>
				</port>
				<port id="1">
					<dim>1</dim>
					<dim>16</dim>
					<dim>128</dim>
					<dim>256</dim>
				</port>
			</input>
			<output>
				<port id="2">
					<dim>1</dim>
					<dim>16</dim>
					<dim>128</dim>
					<dim>256</dim>
				</port>
			</output>
		</layer>
		<layer id="300" name="1992" precision="FP32" type="Convolution">
			<data dilations="1,1" group="1" kernel="1,1" output="4" pads_begin="0,0" pads_end="0,0" strides="1,1"/>
			<input>
				<port id="0">
					<dim>1</dim>
					<dim>16</dim>
					<dim>128</dim>
					<dim>256</dim>
				</port>
			</input>
			<output>
				<port id="3">
					<dim>1</dim>
					<dim>4</dim>
					<dim>128</dim>
					<dim>256</dim>
				</port>
			</output>
			<blobs>
				<weights offset="60756" size="256"/>
				<biases offset="61012" size="16"/>
			</blobs>
		</layer>
		<layer id="301" name="1994" precision="FP32" type="Convolution">
			<data dilations="1,1" group="4" kernel="3,3" output="4" pads_begin="1,1" pads_end="1,1" strides="1,1"/>
			<input>
				<port id="0">
					<dim>1</dim>
					<dim>4</dim>
					<dim>128</dim>
					<dim>256</dim>
				</port>
			</input>
			<output>
				<port id="3">
					<dim>1</dim>
					<dim>4</dim>
					<dim>128</dim>
					<dim>256</dim>
				</port>
			</output>
			<blobs>
				<weights offset="61028" size="144"/>
				<biases offset="61172" size="16"/>
			</blobs>
		</layer>
		<layer id="302" name="1996" precision="FP32" type="Convolution">
			<data dilations="1,1" group="4" kernel="3,3" output="4" pads_begin="1,1" pads_end="1,1" strides="1,1"/>
			<input>
				<port id="0">
					<dim>1</dim>
					<dim>4</dim>
					<dim>128</dim>
					<dim>256</dim>
				</port>
			</input>
			<output>
				<port id="3">
					<dim>1</dim>
					<dim>4</dim>
					<dim>128</dim>
					<dim>256</dim>
				</port>
			</output>
			<blobs>
				<weights offset="61188" size="144"/>
				<biases offset="61332" size="16"/>
			</blobs>
		</layer>
		<layer id="303" name="1998" precision="FP32" type="Convolution">
			<data dilations="1,1" group="4" kernel="3,1" output="4" pads_begin="1,0" pads_end="1,0" strides="1,1"/>
			<input>
				<port id="0">
					<dim>1</dim>
					<dim>4</dim>
					<dim>128</dim>
					<dim>256</dim>
				</port>
			</input>
			<output>
				<port id="3">
					<dim>1</dim>
					<dim>4</dim>
					<dim>128</dim>
					<dim>256</dim>
				</port>
			</output>
			<blobs>
				<weights offset="61348" size="48"/>
				<biases offset="61396" size="16"/>
			</blobs>
		</layer>
		<layer id="304" name="2000" precision="FP32" type="Convolution">
			<data dilations="1,1" group="4" kernel="1,3" output="4" pads_begin="0,1" pads_end="0,1" strides="1,1"/>
			<input>
				<port id="0">
					<dim>1</dim>
					<dim>4</dim>
					<dim>128</dim>
					<dim>256</dim>
				</port>
			</input>
			<output>
				<port id="3">
					<dim>1</dim>
					<dim>4</dim>
					<dim>128</dim>
					<dim>256</dim>
				</port>
			</output>
			<blobs>
				<weights offset="61412" size="48"/>
				<biases offset="61460" size="16"/>
			</blobs>
		</layer>
		<layer id="305" name="2002" precision="FP32" type="Convolution">
			<data dilations="1,1" group="4" kernel="1,3" output="4" pads_begin="0,1" pads_end="0,1" strides="1,1"/>
			<input>
				<port id="0">
					<dim>1</dim>
					<dim>4</dim>
					<dim>128</dim>
					<dim>256</dim>
				</port>
			</input>
			<output>
				<port id="3">
					<dim>1</dim>
					<dim>4</dim>
					<dim>128</dim>
					<dim>256</dim>
				</port>
			</output>
			<blobs>
				<weights offset="61476" size="48"/>
				<biases offset="61524" size="16"/>
			</blobs>
		</layer>
		<layer id="306" name="2004" precision="FP32" type="Convolution">
			<data dilations="1,1" group="4" kernel="3,1" output="4" pads_begin="1,0" pads_end="1,0" strides="1,1"/>
			<input>
				<port id="0">
					<dim>1</dim>
					<dim>4</dim>
					<dim>128</dim>
					<dim>256</dim>
				</port>
			</input>
			<output>
				<port id="3">
					<dim>1</dim>
					<dim>4</dim>
					<dim>128</dim>
					<dim>256</dim>
				</port>
			</output>
			<blobs>
				<weights offset="61540" size="48"/>
				<biases offset="61588" size="16"/>
			</blobs>
		</layer>
		<layer id="307" name="2006" precision="FP32" type="Concat">
			<data axis="1"/>
			<input>
				<port id="0">
					<dim>1</dim>
					<dim>4</dim>
					<dim>128</dim>
					<dim>256</dim>
				</port>
				<port id="1">
					<dim>1</dim>
					<dim>4</dim>
					<dim>128</dim>
					<dim>256</dim>
				</port>
				<port id="2">
					<dim>1</dim>
					<dim>4</dim>
					<dim>128</dim>
					<dim>256</dim>
				</port>
				<port id="3">
					<dim>1</dim>
					<dim>4</dim>
					<dim>128</dim>
					<dim>256</dim>
				</port>
			</input>
			<output>
				<port id="4">
					<dim>1</dim>
					<dim>16</dim>
					<dim>128</dim>
					<dim>256</dim>
				</port>
			</output>
		</layer>
		<layer id="308" name="2027/Output_0/Data__const" precision="I32" type="Const">
			<output>
				<port id="1">
					<dim>5</dim>
				</port>
			</output>
			<blobs>
				<custom offset="1620" size="20"/>
			</blobs>
		</layer>
		<layer id="309" name="2028" precision="FP32" type="Reshape">
			<input>
				<port id="0">
					<dim>1</dim>
					<dim>16</dim>
					<dim>128</dim>
					<dim>256</dim>
				</port>
				<port id="1">
					<dim>5</dim>
				</port>
			</input>
			<output>
				<port id="2">
					<dim>1</dim>
					<dim>4</dim>
					<dim>4</dim>
					<dim>128</dim>
					<dim>256</dim>
				</port>
			</output>
		</layer>
		<layer id="310" name="2029" precision="FP32" type="Permute">
			<data order="0,2,1,3,4"/>
			<input>
				<port id="0">
					<dim>1</dim>
					<dim>4</dim>
					<dim>4</dim>
					<dim>128</dim>
					<dim>256</dim>
				</port>
			</input>
			<output>
				<port id="1">
					<dim>1</dim>
					<dim>4</dim>
					<dim>4</dim>
					<dim>128</dim>
					<dim>256</dim>
				</port>
			</output>
		</layer>
		<layer id="311" name="2034/Output_0/Data__const" precision="I32" type="Const">
			<output>
				<port id="1">
					<dim>4</dim>
				</port>
			</output>
			<blobs>
				<custom offset="1640" size="16"/>
			</blobs>
		</layer>
		<layer id="312" name="2035" precision="FP32" type="Reshape">
			<input>
				<port id="0">
					<dim>1</dim>
					<dim>4</dim>
					<dim>4</dim>
					<dim>128</dim>
					<dim>256</dim>
				</port>
				<port id="1">
					<dim>4</dim>
				</port>
			</input>
			<output>
				<port id="2">
					<dim>1</dim>
					<dim>16</dim>
					<dim>128</dim>
					<dim>256</dim>
				</port>
			</output>
		</layer>
		<layer id="313" name="2036" precision="FP32" type="PReLU">
			<data channel_shared="1"/>
			<input>
				<port id="0">
					<dim>1</dim>
					<dim>16</dim>
					<dim>128</dim>
					<dim>256</dim>
				</port>
			</input>
			<output>
				<port id="2">
					<dim>1</dim>
					<dim>16</dim>
					<dim>128</dim>
					<dim>256</dim>
				</port>
			</output>
			<blobs>
				<weights offset="61604" size="4"/>
			</blobs>
		</layer>
		<layer id="314" name="2037" precision="FP32" type="Convolution">
			<data dilations="1,1" group="4" kernel="1,1" output="16" pads_begin="0,0" pads_end="0,0" strides="1,1"/>
			<input>
				<port id="0">
					<dim>1</dim>
					<dim>16</dim>
					<dim>128</dim>
					<dim>256</dim>
				</port>
			</input>
			<output>
				<port id="3">
					<dim>1</dim>
					<dim>16</dim>
					<dim>128</dim>
					<dim>256</dim>
				</port>
			</output>
			<blobs>
				<weights offset="61608" size="256"/>
				<biases offset="61864" size="64"/>
			</blobs>
		</layer>
		<layer id="315" name="2039" precision="FP32" type="Eltwise">
			<data operation="sum"/>
			<input>
				<port id="0">
					<dim>1</dim>
					<dim>16</dim>
					<dim>128</dim>
					<dim>256</dim>
				</port>
				<port id="1">
					<dim>1</dim>
					<dim>16</dim>
					<dim>128</dim>
					<dim>256</dim>
				</port>
			</input>
			<output>
				<port id="2">
					<dim>1</dim>
					<dim>16</dim>
					<dim>128</dim>
					<dim>256</dim>
				</port>
			</output>
		</layer>
		<layer id="316" name="2040" precision="FP32" type="Convolution">
			<data dilations="1,1" group="1" kernel="3,3" output="8" pads_begin="1,1" pads_end="1,1" strides="1,1"/>
…
			<data dilations="1,1" group="1" kernel="1,1" output="8" pads_begin="0,0" pads_end="0,0" strides="1,1"/>
			<input>
				<port id="0">
					<dim>1</dim>
					<dim>4</dim>
					<dim>256</dim>
					<dim>512</dim>
				</port>
			</input>
			<output>
				<port id="3">
					<dim>1</dim>
					<dim>8</dim>
					<dim>256</dim>
					<dim>512</dim>
				</port>
			</output>
			<blobs>
				<weights offset="67432" size="128"/>
				<biases offset="67560" size="32"/>
			</blobs>
		</layer>
		<layer id="321" name="2050" precision="FP32" type="Eltwise">
			<data operation="sum"/>
			<input>
				<port id="0">
					<dim>1</dim>
					<dim>8</dim>
					<dim>256</dim>
					<dim>512</dim>
				</port>
				<port id="1">
					<dim>1</dim>
					<dim>8</dim>
					<dim>256</dim>
					<dim>512</dim>
				</port>
			</input>
			<output>
				<port id="2">
					<dim>1</dim>
					<dim>8</dim>
					<dim>256</dim>
					<dim>512</dim>
				</port>
			</output>
		</layer>
		<layer id="322" name="2051" precision="FP32" type="PReLU">
			<data channel_shared="1"/>
			<input>
				<port id="0">
					<dim>1</dim>
					<dim>8</dim>
					<dim>256</dim>
					<dim>512</dim>
				</port>
			</input>
			<output>
				<port id="2">
					<dim>1</dim>
					<dim>8</dim>
					<dim>256</dim>
					<dim>512</dim>
				</port>
			</output>
			<blobs>
				<weights offset="67592" size="4"/>
			</blobs>
		</layer>
		<layer id="323" name="2052" precision="FP32" type="Convolution">
			<data dilations="1,1" group="1" kernel="1,1" output="2" pads_begin="0,0" pads_end="0,0" strides="1,1"/>
			<input>
				<port id="0">
					<dim>1</dim>
					<dim>8</dim>
					<dim>256</dim>
					<dim>512</dim>
				</port>
			</input>
			<output>
				<port id="3">
					<dim>1</dim>
					<dim>2</dim>
					<dim>256</dim>
					<dim>512</dim>
				</port>
			</output>
			<blobs>
				<weights offset="67596" size="64"/>
				<biases offset="67660" size="8"/>
			</blobs>
		</layer>
		<layer id="324" name="2054" precision="FP32" type="Convolution">
			<data dilations="1,1" group="2" kernel="3,3" output="2" pads_begin="1,1" pads_end="1,1" strides="1,1"/>
			<input>
				<port id="0">
					<dim>1</dim>
					<dim>2</dim>
					<dim>256</dim>
					<dim>512</dim>
				</port>
			</input>
			<output>
				<port id="3">
					<dim>1</dim>
					<dim>2</dim>
					<dim>256</dim>
					<dim>512</dim>
				</port>
			</output>
			<blobs>
				<weights offset="67668" size="72"/>
				<biases offset="67740" size="8"/>
			</blobs>
		</layer>
		<layer id="325" name="2056" precision="FP32" type="Convolution">
			<data dilations="1,1" group="2" kernel="3,3" output="2" pads_begin="1,1" pads_end="1,1" strides="1,1"/>
			<input>
				<port id="0">
					<dim>1</dim>
					<dim>2</dim>
					<dim>256</dim>
					<dim>512</dim>
				</port>
			</input>
			<output>
				<port id="3">
					<dim>1</dim>
					<dim>2</dim>
					<dim>256</dim>
					<dim>512</dim>
				</port>
			</output>
			<blobs>
				<weights offset="67748" size="72"/>
				<biases offset="67820" size="8"/>
			</blobs>
		</layer>
		<layer id="326" name="2058" precision="FP32" type="Convolution">
			<data dilations="1,1" group="2" kernel="3,1" output="2" pads_begin="1,0" pads_end="1,0" strides="1,1"/>
			<input>
				<port id="0">
					<dim>1</dim>
					<dim>2</dim>
					<dim>256</dim>
					<dim>512</dim>
				</port>
			</input>
			<output>
				<port id="3">
					<dim>1</dim>
					<dim>2</dim>
					<dim>256</dim>
					<dim>512</dim>
				</port>
			</output>
			<blobs>
				<weights offset="67828" size="24"/>
				<biases offset="67852" size="8"/>
			</blobs>
		</layer>
		<layer id="327" name="2060" precision="FP32" type="Convolution">
			<data dilations="1,1" group="2" kernel="1,3" output="2" pads_begin="0,1" pads_end="0,1" strides="1,1"/>
			<input>
				<port id="0">
					<dim>1</dim>
					<dim>2</dim>
					<dim>256</dim>
					<dim>512</dim>
				</port>
			</input>
			<output>
				<port id="3">
					<dim>1</dim>
					<dim>2</dim>
					<dim>256</dim>
					<dim>512</dim>
				</port>
			</output>
			<blobs>
				<weights offset="67860" size="24"/>
				<biases offset="67884" size="8"/>
			</blobs>
		</layer>
		<layer id="328" name="2062" precision="FP32" type="Convolution">
			<data dilations="1,1" group="2" kernel="1,3" output="2" pads_begin="0,1" pads_end="0,1" strides="1,1"/>
			<input>
				<port id="0">
					<dim>1</dim>
					<dim>2</dim>
					<dim>256</dim>
					<dim>512</dim>
				</port>
			</input>
			<output>
				<port id="3">
					<dim>1</dim>
					<dim>2</dim>
					<dim>256</dim>
					<dim>512</dim>
				</port>
			</output>
			<blobs>
				<weights offset="67892" size="24"/>
				<biases offset="67916" size="8"/>
			</blobs>
		</layer>
		<layer id="329" name="2064" precision="FP32" type="Convolution">
			<data dilations="1,1" group="2" kernel="3,1" output="2" pads_begin="1,0" pads_end="1,0" strides="1,1"/>
			<input>
				<port id="0">
					<dim>1</dim>
					<dim>2</dim>
					<dim>256</dim>
					<dim>512</dim>
				</port>
			</input>
			<output>
				<port id="3">
					<dim>1</dim>
					<dim>2</dim>
					<dim>256</dim>
					<dim>512</dim>
				</port>
			</output>
			<blobs>
				<weights offset="67924" size="24"/>
				<biases offset="67948" size="8"/>
			</blobs>
		</layer>
		<layer id="330" name="2066" precision="FP32" type="Concat">
			<data axis="1"/>
			<input>
				<port id="0">
					<dim>1</dim>
					<dim>2</dim>
					<dim>256</dim>
					<dim>512</dim>
				</port>
				<port id="1">
					<dim>1</dim>
					<dim>2</dim>
					<dim>256</dim>
					<dim>512</dim>
				</port>
				<port id="2">
					<dim>1</dim>
					<dim>2</dim>
					<dim>256</dim>
					<dim>512</dim>
				</port>
				<port id="3">
					<dim>1</dim>
					<dim>2</dim>
					<dim>256</dim>
					<dim>512</dim>
				</port>
			</input>
			<output>
				<port id="4">
					<dim>1</dim>
					<dim>8</dim>
					<dim>256</dim>
					<dim>512</dim>
				</port>
			</output>
		</layer>
		<layer id="331" name="2087/Output_0/Data__const" precision="I32" type="Const">
			<output>
				<port id="1">
					<dim>5</dim>
				</port>
			</output>
			<blobs>
				<custom offset="924" size="20"/>
			</blobs>
		</layer>
		<layer id="332" name="2088" precision="FP32" type="Reshape">
			<input>
				<port id="0">
					<dim>1</dim>
					<dim>8</dim>
					<dim>256</dim>
					<dim>512</dim>
				</port>
				<port id="1">
					<dim>5</dim>
				</port>
			</input>
			<output>
				<port id="2">
					<dim>1</dim>
					<dim>4</dim>
					<dim>2</dim>
					<dim>256</dim>
					<dim>512</dim>
				</port>
			</output>
		</layer>
		<layer id="333" name="2089" precision="FP32" type="Permute">
			<data order="0,2,1,3,4"/>
			<input>
				<port id="0">
					<dim>1</dim>
					<dim>4</dim>
					<dim>2</dim>
					<dim>256</dim>
					<dim>512</dim>
				</port>
			</input>
			<output>
				<port id="1">
					<dim>1</dim>
					<dim>2</dim>
					<dim>4</dim>
					<dim>256</dim>
					<dim>512</dim>
				</port>
			</output>
		</layer>
		<layer id="334" name="2094/Output_0/Data__const" precision="I32" type="Const">
			<output>
				<port id="1">
					<dim>4</dim>
				</port>
			</output>
			<blobs>
				<custom offset="944" size="16"/>
			</blobs>
		</layer>
		<layer id="335" name="2095" precision="FP32" type="Reshape">
			<input>
				<port id="0">
					<dim>1</dim>
					<dim>2</dim>
					<dim>4</dim>
					<dim>256</dim>
					<dim>512</dim>
				</port>
				<port id="1">
					<dim>4</dim>
				</port>
			</input>
			<output>
				<port id="2">
					<dim>1</dim>
					<dim>8</dim>
					<dim>256</dim>
					<dim>512</dim>
				</port>
			</output>
		</layer>
		<layer id="336" name="2096" precision="FP32" type="PReLU">
			<data channel_shared="1"/>
			<input>
				<port id="0">
					<dim>1</dim>
					<dim>8</dim>
					<dim>256</dim>
					<dim>512</dim>
				</port>
			</input>
			<output>
				<port id="2">
					<dim>1</dim>
					<dim>8</dim>
					<dim>256</dim>
					<dim>512</dim>
				</port>
			</output>
			<blobs>
				<weights offset="67956" size="4"/>
			</blobs>
		</layer>
		<layer id="337" name="2097" precision="FP32" type="Convolution">
			<data dilations="1,1" group="2" kernel="1,1" output="8" pads_begin="0,0" pads_end="0,0" strides="1,1"/>
			<input>
				<port id="0">
					<dim>1</dim>
					<dim>8</dim>
					<dim>256</dim>
					<dim>512</dim>
				</port>
			</input>
			<output>
				<port id="3">
					<dim>1</dim>
					<dim>8</dim>
					<dim>256</dim>
					<dim>512</dim>
				</port>
			</output>
			<blobs>
				<weights offset="67960" size="128"/>
				<biases offset="68088" size="32"/>
			</blobs>
		</layer>
		<layer id="338" name="2099" precision="FP32" type="Eltwise">
			<data operation="sum"/>
			<input>
				<port id="0">
					<dim>1</dim>
					<dim>8</dim>
					<dim>256</dim>
					<dim>512</dim>
				</port>
				<port id="1">
					<dim>1</dim>
					<dim>8</dim>
					<dim>256</dim>
					<dim>512</dim>
				</port>
			</input>
			<output>
				<port id="2">
					<dim>1</dim>
					<dim>8</dim>
					<dim>256</dim>
					<dim>512</dim>
				</port>
			</output>
		</layer>
		<layer id="339" name="2100" precision="FP32" type="Convolution">
			<data dilations="1,1" group="1" kernel="1,1" output="2" pads_begin="0,0" pads_end="0,0" strides="1,1"/>
			<input>
				<port id="0">
					<dim>1</dim>
					<dim>8</dim>
					<dim>256</dim>
					<dim>512</dim>
				</port>
			</input>
			<output>
				<port id="3">
					<dim>1</dim>
					<dim>2</dim>
					<dim>256</dim>
					<dim>512</dim>
				</port>
			</output>
			<blobs>
				<weights offset="68120" size="64"/>
				<biases offset="68184" size="8"/>
			</blobs>
		</layer>
		<layer id="340" name="2102" precision="FP32" type="Convolution">
			<data dilations="1,1" group="2" kernel="3,3" output="2" pads_begin="1,1" pads_end="1,1" strides="1,1"/>
			<input>
				<port id="0">
					<dim>1</dim>
					<dim>2</dim>
					<dim>256</dim>
					<dim>512</dim>
				</port>
			</input>
			<output>
				<port id="3">
					<dim>1</dim>
					<dim>2</dim>
					<dim>256</dim>
					<dim>512</dim>
				</port>
			</output>
			<blobs>
				<weights offset="68192" size="72"/>
				<biases offset="68264" size="8"/>
			</blobs>
		</layer>
		<layer id="341" name="2104" precision="FP32" type="Convolution">
			<data dilations="1,1" group="2" kernel="3,3" output="2" pads_begin="1,1" pads_end="1,1" strides="1,1"/>
			<input>
				<port id="0">
					<dim>1</dim>
					<dim>2</dim>
					<dim>256</dim>
					<dim>512</dim>
				</port>
			</input>
			<output>
				<port id="3">
					<dim>1</dim>
					<dim>2</dim>
					<dim>256</dim>
					<dim>512</dim>
				</port>
			</output>
			<blobs>
				<weights offset="68272" size="72"/>
				<biases offset="68344" size="8"/>
			</blobs>
		</layer>
		<layer id="342" name="2106" precision="FP32" type="Convolution">
			<data dilations="1,1" group="2" kernel="3,1" output="2" pads_begin="1,0" pads_end="1,0" strides="1,1"/>
			<input>
				<port id="0">
					<dim>1</dim>
					<dim>2</dim>
					<dim>256</dim>
					<dim>512</dim>
				</port>
			</input>
			<output>
				<port id="3">
					<dim>1</dim>
					<dim>2</dim>
					<dim>256</dim>
					<dim>512</dim>
				</port>
			</output>
			<blobs>
				<weights offset="68352" size="24"/>
				<biases offset="68376" size="8"/>
			</blobs>
		</layer>
		<layer id="343" name="2108" precision="FP32" type="Convolution">
			<data dilations="1,1" group="2" kernel="1,3" output="2" pads_begin="0,1" pads_end="0,1" strides="1,1"/>
			<input>
				<port id="0">
					<dim>1</dim>
					<dim>2</dim>
					<dim>256</dim>
					<dim>512</dim>
				</port>
			</input>
			<output>
				<port id="3">
					<dim>1</dim>
					<dim>2</dim>
					<dim>256</dim>
					<dim>512</dim>
				</port>
			</output>
			<blobs>
				<weights offset="68384" size="24"/>
				<biases offset="68408" size="8"/>
			</blobs>
		</layer>
		<layer id="344" name="2110" precision="FP32" type="Convolution">
			<data dilations="1,1" group="2" kernel="1,3" output="2" pads_begin="0,1" pads_end="0,1" strides="1,1"/>
			<input>
				<port id="0">
					<dim>1</dim>
					<dim>2</dim>
					<dim>256</dim>
					<dim>512</dim>
				</port>
			</input>
			<output>
				<port id="3">
					<dim>1</dim>
					<dim>2</dim>
					<dim>256</dim>
					<dim>512</dim>
				</port>
			</output>
			<blobs>
				<weights offset="68416" size="24"/>
				<biases offset="68440" size="8"/>
			</blobs>
		</layer>
		<layer id="345" name="2112" precision="FP32" type="Convolution">
			<data dilations="1,1" group="2" kernel="3,1" output="2" pads_begin="1,0" pads_end="1,0" strides="1,1"/>
			<input>
				<port id="0">
					<dim>1</dim>
					<dim>2</dim>
					<dim>256</dim>
					<dim>512</dim>
				</port>
			</input>
			<output>
				<port id="3">
					<dim>1</dim>
					<dim>2</dim>
					<dim>256</dim>
					<dim>512</dim>
				</port>
			</output>
			<blobs>
				<weights offset="68448" size="24"/>
				<biases offset="68472" size="8"/>
			</blobs>
		</layer>
		<layer id="346" name="2114" precision="FP32" type="Concat">
			<data axis="1"/>
			<input>
				<port id="0">
					<dim>1</dim>
					<dim>2</dim>
					<dim>256</dim>
					<dim>512</dim>
				</port>
				<port id="1">
					<dim>1</dim>
					<dim>2</dim>
					<dim>256</dim>
					<dim>512</dim>
				</port>
				<port id="2">
					<dim>1</dim>
					<dim>2</dim>
					<dim>256</dim>
					<dim>512</dim>
				</port>
				<port id="3">
					<dim>1</dim>
					<dim>2</dim>
					<dim>256</dim>
					<dim>512</dim>
				</port>
			</input>
			<output>
				<port id="4">
					<dim>1</dim>
					<dim>8</dim>
					<dim>256</dim>
					<dim>512</dim>
				</port>
			</output>
		</layer>
		<layer id="347" name="2135/Output_0/Data__const" precision="I32" type="Const">
			<output>
				<port id="1">
					<dim>5</dim>
				</port>
			</output>
			<blobs>
				<custom offset="924" size="20"/>
			</blobs>
		</layer>
		<layer id="348" name="2136" precision="FP32" type="Reshape">
			<input>
				<port id="0">
					<dim>1</dim>
					<dim>8</dim>
					<dim>256</dim>
					<dim>512</dim>
				</port>
				<port id="1">
					<dim>5</dim>
				</port>
			</input>
			<output>
				<port id="2">
					<dim>1</dim>
					<dim>4</dim>
					<dim>2</dim>
					<dim>256</dim>
					<dim>512</dim>
				</port>
			</output>
		</layer>
		<layer id="349" name="2137" precision="FP32" type="Permute">
			<data order="0,2,1,3,4"/>
			<input>
				<port id="0">
					<dim>1</dim>
					<dim>4</dim>
					<dim>2</dim>
					<dim>256</dim>
					<dim>512</dim>
				</port>
			</input>
			<output>
				<port id="1">
					<dim>1</dim>
					<dim>2</dim>
					<dim>4</dim>
					<dim>256</dim>
					<dim>512</dim>
				</port>
			</output>
		</layer>
		<layer id="350" name="2142/Output_0/Data__const" precision="I32" type="Const">
			<output>
				<port id="1">
					<dim>4</dim>
				</port>
			</output>
			<blobs>
				<custom offset="944" size="16"/>
			</blobs>
		</layer>
		<layer id="351" name="2143" precision="FP32" type="Reshape">
			<input>
				<port id="0">
					<dim>1</dim>
					<dim>2</dim>
					<dim>4</dim>
					<dim>256</dim>
					<dim>512</dim>
				</port>
				<port id="1">
					<dim>4</dim>
				</port>
			</input>
			<output>
				<port id="2">
					<dim>1</dim>
					<dim>8</dim>
					<dim>256</dim>
					<dim>512</dim>
				</port>
			</output>
		</layer>
		<layer id="352" name="2144" precision="FP32" type="PReLU">
			<data channel_shared="1"/>
			<input>
				<port id="0">
					<dim>1</dim>
					<dim>8</dim>
					<dim>256</dim>
					<dim>512</dim>
				</port>
			</input>
			<output>
				<port id="2">
					<dim>1</dim>
					<dim>8</dim>
					<dim>256</dim>
					<dim>512</dim>
				</port>
			</output>
			<blobs>
				<weights offset="68480" size="4"/>
			</blobs>
		</layer>
		<layer id="353" name="2145" precision="FP32" type="Convolution">
			<data dilations="1,1" group="2" kernel="1,1" output="8" pads_begin="0,0" pads_end="0,0" strides="1,1"/>
			<input>
				<port id="0">
					<dim>1</dim>
					<dim>8</dim>
					<dim>256</dim>
					<dim>512</dim>
				</port>
			</input>
			<output>
				<port id="3">
					<dim>1</dim>
					<dim>8</dim>
					<dim>256</dim>
					<dim>512</dim>
				</port>
			</output>
			<blobs>
				<weights offset="68484" size="128"/>
				<biases offset="68612" size="32"/>
			</blobs>
		</layer>
		<layer id="354" name="2147" precision="FP32" type="Eltwise">
			<data operation="sum"/>
			<input>
				<port id="0">
					<dim>1</dim>
					<dim>8</dim>
					<dim>256</dim>
					<dim>512</dim>
				</port>
				<port id="1">
					<dim>1</dim>
					<dim>8</dim>
					<dim>256</dim>
					<dim>512</dim>
				</port>
			</input>
			<output>
				<port id="2">
					<dim>1</dim>
					<dim>8</dim>
					<dim>256</dim>
					<dim>512</dim>
				</port>
			</output>
		</layer>
		<layer id="355" name="2148" precision="FP32" type="Convolution">
			<data dilations="1,1" group="1" kernel="1,1" output="2" pads_begin="0,0" pads_end="0,0" strides="1,1"/>
			<input>
				<port id="0">
					<dim>1</dim>
					<dim>8</dim>
					<dim>256</dim>
					<dim>512</dim>
				</port>
			</input>
			<output>
				<port id="3">
					<dim>1</dim>
					<dim>2</dim>
					<dim>256</dim>
					<dim>512</dim>
				</port>
			</output>
			<blobs>
				<weights offset="68644" size="64"/>
				<biases offset="68708" size="8"/>
			</blobs>
		</layer>
		<layer id="356" name="Interpolate/2150" precision="FP32" type="Resample">
			<data antialias="0" factor="2.0" height="0" type="caffe.ResampleParameter.NEAREST" width="0"/>
			<input>
				<port id="0">
					<dim>1</dim>
					<dim>2</dim>
					<dim>256</dim>
					<dim>512</dim>
				</port>
			</input>
			<output>
				<port id="1">
					<dim>1</dim>
					<dim>2</dim>
					<dim>512</dim>
					<dim>1024</dim>
				</port>
			</output>
		</layer>
		<layer id="357" name="output" precision="FP32" type="Convolution">
			<data dilations="1,1" group="1" kernel="3,3" output="2" pads_begin="1,1" pads_end="1,1" strides="1,1"/>
			<input>
				<port id="0">
					<dim>1</dim>
					<dim>2</dim>
					<dim>512</dim>
					<dim>1024</dim>
				</port>
			</input>
			<output>
				<port id="3">
					<dim>1</dim>
					<dim>2</dim>
					<dim>512</dim>
					<dim>1024</dim>
				</port>
			</output>
			<blobs>
				<weights offset="68716" size="144"/>
				<biases offset="68860" size="8"/>
			</blobs>
		</layer>
	</layers>
	<edges>
		<edge from-layer="0" from-port="0" to-layer="1" to-port="0"/>
		<edge from-layer="1" from-port="3" to-layer="2" to-port="0"/>
		<edge from-layer="0" from-port="0" to-layer="3" to-port="0"/>
		<edge from-layer="2" from-port="2" to-layer="4" to-port="0"/>
		<edge from-layer="3" from-port="1" to-layer="4" to-port="1"/>
		<edge from-layer="4" from-port="2" to-layer="5" to-port="0"/>
		<edge from-layer="5" from-port="3" to-layer="6" to-port="0"/>
		<edge from-layer="5" from-port="3" to-layer="7" to-port="0"/>
		<edge from-layer="5" from-port="3" to-layer="8" to-port="0"/>
		<edge from-layer="8" from-port="3" to-layer="9" to-port="0"/>
		<edge from-layer="5" from-port="3" to-layer="10" to-port="0"/>
		<edge from-layer="10" from-port="3" to-layer="11" to-port="0"/>
		<edge from-layer="6" from-port="3" to-layer="12" to-port="0"/>
		<edge from-layer="7" from-port="3" to-layer="12" to-port="1"/>
		<edge from-layer="9" from-port="3" to-layer="12" to-port="2"/>
		<edge from-layer="11" from-port="3" to-layer="12" to-port="3"/>
		<edge from-layer="12" from-port="4" to-layer="14" to-port="0"/>
		<edge from-layer="13" from-port="1" to-layer="14" to-port="1"/>
		<edge from-layer="14" from-port="2" to-layer="15" to-port="0"/>
		<edge from-layer="15" from-port="1" to-layer="17" to-port="0"/>
		<edge from-layer="16" from-port="1" to-layer="17" to-port="1"/>
		<edge from-layer="17" from-port="2" to-layer="18" to-port="0"/>
		<edge from-layer="18" from-port="2" to-layer="19" to-port="0"/>
		<edge from-layer="4" from-port="2" to-layer="20" to-port="0"/>
		<edge from-layer="19" from-port="3" to-layer="20" to-port="1"/>
		<edge from-layer="20" from-port="2" to-layer="21" to-port="0"/>
		<edge from-layer="21" from-port="1" to-layer="22" to-port="0"/>
		<edge from-layer="22" from-port="3" to-layer="23" to-port="0"/>
		<edge from-layer="22" from-port="3" to-layer="24" to-port="0"/>
		<edge from-layer="22" from-port="3" to-layer="25" to-port="0"/>
		<edge from-layer="25" from-port="3" to-layer="26" to-port="0"/>
		<edge from-layer="22" from-port="3" to-layer="27" to-port="0"/>
		<edge from-layer="27" from-port="3" to-layer="28" to-port="0"/>
		<edge from-layer="23" from-port="3" to-layer="29" to-port="0"/>
		<edge from-layer="24" from-port="3" to-layer="29" to-port="1"/>
		<edge from-layer="26" from-port="3" to-layer="29" to-port="2"/>
		<edge from-layer="28" from-port="3" to-layer="29" to-port="3"/>
		<edge from-layer="21" from-port="1" to-layer="29" to-port="4"/>
		<edge from-layer="29" from-port="5" to-layer="31" to-port="0"/>
		<edge from-layer="30" from-port="1" to-layer="31" to-port="1"/>
		<edge from-layer="31" from-port="2" to-layer="32" to-port="0"/>
		<edge from-layer="32" from-port="1" to-layer="34" to-port="0"/>
		<edge from-layer="33" from-port="1" to-layer="34" to-port="1"/>
		<edge from-layer="34" from-port="2" to-layer="35" to-port="0"/>
		<edge from-layer="35" from-port="2" to-layer="36" to-port="0"/>
		<edge from-layer="36" from-port="3" to-layer="37" to-port="0"/>
		<edge from-layer="37" from-port="3" to-layer="38" to-port="0"/>
		<edge from-layer="37" from-port="3" to-layer="39" to-port="0"/>
		<edge from-layer="37" from-port="3" to-layer="40" to-port="0"/>
		<edge from-layer="40" from-port="3" to-layer="41" to-port="0"/>
		<edge from-layer="37" from-port="3" to-layer="42" to-port="0"/>
		<edge from-layer="42" from-port="3" to-layer="43" to-port="0"/>
		<edge from-layer="38" from-port="3" to-layer="44" to-port="0"/>
		<edge from-layer="39" from-port="3" to-layer="44" to-port="1"/>
		<edge from-layer="41" from-port="3" to-layer="44" to-port="2"/>
		<edge from-layer="43" from-port="3" to-layer="44" to-port="3"/>
		<edge from-layer="44" from-port="4" to-layer="46" to-port="0"/>
		<edge from-layer="45" from-port="1" to-layer="46" to-port="1"/>
		<edge from-layer="46" from-port="2" to-layer="47" to-port="0"/>
		<edge from-layer="47" from-port="1" to-layer="49" to-port="0"/>
		<edge from-layer="48" from-port="1" to-layer="49" to-port="1"/>
		<edge from-layer="49" from-port="2" to-layer="50" to-port="0"/>
		<edge from-layer="50" from-port="2" to-layer="51" to-port="0"/>
		<edge from-layer="36" from-port="3" to-layer="52" to-port="0"/>
		<edge from-layer="51" from-port="3" to-layer="52" to-port="1"/>
		<edge from-layer="52" from-port="2" to-layer="53" to-port="0"/>
		<edge from-layer="53" from-port="3" to-layer="54" to-port="0"/>
		<edge from-layer="53" from-port="3" to-layer="55" to-port="0"/>
		<edge from-layer="53" from-port="3" to-layer="56" to-port="0"/>
		<edge from-layer="56" from-port="3" to-layer="57" to-port="0"/>
		<edge from-layer="53" from-port="3" to-layer="58" to-port="0"/>
		<edge from-layer="58" from-port="3" to-layer="59" to-port="0"/>
		<edge from-layer="54" from-port="3" to-layer="60" to-port="0"/>
		<edge from-layer="55" from-port="3" to-layer="60" to-port="1"/>
		<edge from-layer="57" from-port="3" to-layer="60" to-port="2"/>
		<edge from-layer="59" from-port="3" to-layer="60" to-port="3"/>
		<edge from-layer="60" from-port="4" to-layer="62" to-port="0"/>
		<edge from-layer="61" from-port="1" to-layer="62" to-port="1"/>
		<edge from-layer="62" from-port="2" to-layer="63" to-port="0"/>
		<edge from-layer="63" from-port="1" to-layer="65" to-port="0"/>
		<edge from-layer="64" from-port="1" to-layer="65" to-port="1"/>
		<edge from-layer="65" from-port="2" to-layer="66" to-port="0"/>
		<edge from-layer="66" from-port="2" to-layer="67" to-port="0"/>
		<edge from-layer="52" from-port="2" to-layer="68" to-port="0"/>
		<edge from-layer="67" from-port="3" to-layer="68" to-port="1"/>
		<edge from-layer="68" from-port="2" to-layer="69" to-port="0"/>
		<edge from-layer="69" from-port="3" to-layer="70" to-port="0"/>
		<edge from-layer="69" from-port="3" to-layer="71" to-port="0"/>
		<edge from-layer="69" from-port="3" to-layer="72" to-port="0"/>
		<edge from-layer="72" from-port="3" to-layer="73" to-port="0"/>
		<edge from-layer="69" from-port="3" to-layer="74" to-port="0"/>
		<edge from-layer="74" from-port="3" to-layer="75" to-port="0"/>
		<edge from-layer="70" from-port="3" to-layer="76" to-port="0"/>
		<edge from-layer="71" from-port="3" to-layer="76" to-port="1"/>
		<edge from-layer="73" from-port="3" to-layer="76" to-port="2"/>
		<edge from-layer="75" from-port="3" to-layer="76" to-port="3"/>
		<edge from-layer="76" from-port="4" to-layer="78" to-port="0"/>
		<edge from-layer="77" from-port="1" to-layer="78" to-port="1"/>
		<edge from-layer="78" from-port="2" to-layer="79" to-port="0"/>
		<edge from-layer="79" from-port="1" to-layer="81" to-port="0"/>
		<edge from-layer="80" from-port="1" to-layer="81" to-port="1"/>
		<edge from-layer="81" from-port="2" to-layer="82" to-port="0"/>
		<edge from-layer="82" from-port="2" to-layer="83" to-port="0"/>
		<edge from-layer="68" from-port="2" to-layer="84" to-port="0"/>
		<edge from-layer="83" from-port="3" to-layer="84" to-port="1"/>
		<edge from-layer="84" from-port="2" to-layer="85" to-port="0"/>
		<edge from-layer="85" from-port="3" to-layer="86" to-port="0"/>
		<edge from-layer="85" from-port="3" to-layer="87" to-port="0"/>
		<edge from-layer="85" from-port="3" to-layer="88" to-port="0"/>
		<edge from-layer="88" from-port="3" to-layer="89" to-port="0"/>
		<edge from-layer="85" from-port="3" to-layer="90" to-port="0"/>
		<edge from-layer="90" from-port="3" to-layer="91" to-port="0"/>
		<edge from-layer="86" from-port="3" to-layer="92" to-port="0"/>
		<edge from-layer="87" from-port="3" to-layer="92" to-port="1"/>
		<edge from-layer="89" from-port="3" to-layer="92" to-port="2"/>
		<edge from-layer="91" from-port="3" to-layer="92" to-port="3"/>
		<edge from-layer="92" from-port="4" to-layer="94" to-port="0"/>
		<edge from-layer="93" from-port="1" to-layer="94" to-port="1"/>
		<edge from-layer="94" from-port="2" to-layer="95" to-port="0"/>
		<edge from-layer="95" from-port="1" to-layer="97" to-port="0"/>
		<edge from-layer="96" from-port="1" to-layer="97" to-port="1"/>
		<edge from-layer="97" from-port="2" to-layer="98" to-port="0"/>
		<edge from-layer="98" from-port="2" to-layer="99" to-port="0"/>
		<edge from-layer="84" from-port="2" to-layer="100" to-port="0"/>
		<edge from-layer="99" from-port="3" to-layer="100" to-port="1"/>
		<edge from-layer="100" from-port="2" to-layer="101" to-port="0"/>
		<edge from-layer="101" from-port="1" to-layer="102" to-port="0"/>
		<edge from-layer="102" from-port="3" to-layer="103" to-port="0"/>
		<edge from-layer="102" from-port="3" to-layer="104" to-port="0"/>
		<edge from-layer="102" from-port="3" to-layer="105" to-port="0"/>
		<edge from-layer="105" from-port="3" to-layer="106" to-port="0"/>
		<edge from-layer="102" from-port="3" to-layer="107" to-port="0"/>
		<edge from-layer="107" from-port="3" to-layer="108" to-port="0"/>
		<edge from-layer="103" from-port="3" to-layer="109" to-port="0"/>
		<edge from-layer="104" from-port="3" to-layer="109" to-port="1"/>
		<edge from-layer="106" from-port="3" to-layer="109" to-port="2"/>
		<edge from-layer="108" from-port="3" to-layer="109" to-port="3"/>
		<edge from-layer="101" from-port="1" to-layer="109" to-port="4"/>
		<edge from-layer="109" from-port="5" to-layer="111" to-port="0"/>
		<edge from-layer="110" from-port="1" to-layer="111" to-port="1"/>
		<edge from-layer="111" from-port="2" to-layer="112" to-port="0"/>
		<edge from-layer="112" from-port="1" to-layer="114" to-port="0"/>
		<edge from-layer="113" from-port="1" to-layer="114" to-port="1"/>
		<edge from-layer="114" from-port="2" to-layer="115" to-port="0"/>
		<edge from-layer="115" from-port="2" to-layer="116" to-port="0"/>
		<edge from-layer="116" from-port="3" to-layer="117" to-port="0"/>
		<edge from-layer="117" from-port="3" to-layer="118" to-port="0"/>
		<edge from-layer="117" from-port="3" to-layer="119" to-port="0"/>
		<edge from-layer="117" from-port="3" to-layer="120" to-port="0"/>
		<edge from-layer="120" from-port="3" to-layer="121" to-port="0"/>
		<edge from-layer="117" from-port="3" to-layer="122" to-port="0"/>
		<edge from-layer="122" from-port="3" to-layer="123" to-port="0"/>
		<edge from-layer="118" from-port="3" to-layer="124" to-port="0"/>
		<edge from-layer="119" from-port="3" to-layer="124" to-port="1"/>
		<edge from-layer="121" from-port="3" to-layer="124" to-port="2"/>
		<edge from-layer="123" from-port="3" to-layer="124" to-port="3"/>
		<edge from-layer="124" from-port="4" to-layer="126" to-port="0"/>
		<edge from-layer="125" from-port="1" to-layer="126" to-port="1"/>
		<edge from-layer="126" from-port="2" to-layer="127" to-port="0"/>
		<edge from-layer="127" from-port="1" to-layer="129" to-port="0"/>
		<edge from-layer="128" from-port="1" to-layer="129" to-port="1"/>
		<edge from-layer="129" from-port="2" to-layer="130" to-port="0"/>
		<edge from-layer="130" from-port="2" to-layer="131" to-port="0"/>
		<edge from-layer="116" from-port="3" to-layer="132" to-port="0"/>
		<edge from-layer="131" from-port="3" to-layer="132" to-port="1"/>
		<edge from-layer="132" from-port="2" to-layer="133" to-port="0"/>
		<edge from-layer="133" from-port="3" to-layer="134" to-port="0"/>
		<edge from-layer="133" from-port="3" to-layer="135" to-port="0"/>
		<edge from-layer="133" from-port="3" to-layer="136" to-port="0"/>
		<edge from-layer="136" from-port="3" to-layer="137" to-port="0"/>
		<edge from-layer="133" from-port="3" to-layer="138" to-port="0"/>
		<edge from-layer="138" from-port="3" to-layer="139" to-port="0"/>
		<edge from-layer="134" from-port="3" to-layer="140" to-port="0"/>
		<edge from-layer="135" from-port="3" to-layer="140" to-port="1"/>
		<edge from-layer="137" from-port="3" to-layer="140" to-port="2"/>
		<edge from-layer="139" from-port="3" to-layer="140" to-port="3"/>
		<edge from-layer="140" from-port="4" to-layer="142" to-port="0"/>
		<edge from-layer="141" from-port="1" to-layer="142" to-port="1"/>
		<edge from-layer="142" from-port="2" to-layer="143" to-port="0"/>
		<edge from-layer="143" from-port="1" to-layer="145" to-port="0"/>
		<edge from-layer="144" from-port="1" to-layer="145" to-port="1"/>
		<edge from-layer="145" from-port="2" to-layer="146" to-port="0"/>
		<edge from-layer="146" from-port="2" to-layer="147" to-port="0"/>
		<edge from-layer="132" from-port="2" to-layer="148" to-port="0"/>
		<edge from-layer="147" from-port="3" to-layer="148" to-port="1"/>
		<edge from-layer="148" from-port="2" to-layer="149" to-port="0"/>
		<edge from-layer="149" from-port="3" to-layer="150" to-port="0"/>
		<edge from-layer="149" from-port="3" to-layer="151" to-port="0"/>
		<edge from-layer="149" from-port="3" to-layer="152" to-port="0"/>
		<edge from-layer="152" from-port="3" to-layer="153" to-port="0"/>
		<edge from-layer="149" from-port="3" to-layer="154" to-port="0"/>
		<edge from-layer="154" from-port="3" to-layer="155" to-port="0"/>
		<edge from-layer="150" from-port="3" to-layer="156" to-port="0"/>
		<edge from-layer="151" from-port="3" to-layer="156" to-port="1"/>
		<edge from-layer="153" from-port="3" to-layer="156" to-port="2"/>
		<edge from-layer="155" from-port="3" to-layer="156" to-port="3"/>
		<edge from-layer="156" from-port="4" to-layer="158" to-port="0"/>
		<edge from-layer="157" from-port="1" to-layer="158" to-port="1"/>
		<edge from-layer="158" from-port="2" to-layer="159" to-port="0"/>
		<edge from-layer="159" from-port="1" to-layer="161" to-port="0"/>
		<edge from-layer="160" from-port="1" to-layer="161" to-port="1"/>
		<edge from-layer="161" from-port="2" to-layer="162" to-port="0"/>
		<edge from-layer="162" from-port="2" to-layer="163" to-port="0"/>
		<edge from-layer="148" from-port="2" to-layer="164" to-port="0"/>
		<edge from-layer="163" from-port="3" to-layer="164" to-port="1"/>
		<edge from-layer="164" from-port="2" to-layer="165" to-port="0"/>
		<edge from-layer="165" from-port="3" to-layer="166" to-port="0"/>
		<edge from-layer="165" from-port="3" to-layer="167" to-port="0"/>
		<edge from-layer="165" from-port="3" to-layer="168" to-port="0"/>
		<edge from-layer="168" from-port="3" to-layer="169" to-port="0"/>
		<edge from-layer="165" from-port="3" to-layer="170" to-port="0"/>
		<edge from-layer="170" from-port="3" to-layer="171" to-port="0"/>
		<edge from-layer="166" from-port="3" to-layer="172" to-port="0"/>
		<edge from-layer="167" from-port="3" to-layer="172" to-port="1"/>
		<edge from-layer="169" from-port="3" to-layer="172" to-port="2"/>
		<edge from-layer="171" from-port="3" to-layer="172" to-port="3"/>
		<edge from-layer="172" from-port="4" to-layer="174" to-port="0"/>
		<edge from-layer="173" from-port="1" to-layer="174" to-port="1"/>
		<edge from-layer="174" from-port="2" to-layer="175" to-port="0"/>
		<edge from-layer="175" from-port="1" to-layer="177" to-port="0"/>
		<edge from-layer="176" from-port="1" to-layer="177" to-port="1"/>
		<edge from-layer="177" from-port="2" to-layer="178" to-port="0"/>
		<edge from-layer="178" from-port="2" to-layer="179" to-port="0"/>
		<edge from-layer="164" from-port="2" to-layer="180" to-port="0"/>
		<edge from-layer="179" from-port="3" to-layer="180" to-port="1"/>
		<edge from-layer="180" from-port="2" to-layer="181" to-port="0"/>
		<edge from-layer="181" from-port="3" to-layer="182" to-port="0"/>
		<edge from-layer="181" from-port="3" to-layer="183" to-port="0"/>
		<edge from-layer="181" from-port="3" to-layer="184" to-port="0"/>
		<edge from-layer="184" from-port="3" to-layer="185" to-port="0"/>
		<edge from-layer="181" from-port="3" to-layer="186" to-port="0"/>
		<edge from-layer="186" from-port="3" to-layer="187" to-port="0"/>
		<edge from-layer="182" from-port="3" to-layer="188" to-port="0"/>
		<edge from-layer="183" from-port="3" to-layer="188" to-port="1"/>
		<edge from-layer="185" from-port="3" to-layer="188" to-port="2"/>
		<edge from-layer="187" from-port="3" to-layer="188" to-port="3"/>
		<edge from-layer="188" from-port="4" to-layer="190" to-port="0"/>
		<edge from-layer="189" from-port="1" to-layer="190" to-port="1"/>
		<edge from-layer="190" from-port="2" to-layer="191" to-port="0"/>
		<edge from-layer="191" from-port="1" to-layer="193" to-port="0"/>
		<edge from-layer="192" from-port="1" to-layer="193" to-port="1"/>
		<edge from-layer="193" from-port="2" to-layer="194" to-port="0"/>
		<edge from-layer="194" from-port="2" to-layer="195" to-port="0"/>
		<edge from-layer="180" from-port="2" to-layer="196" to-port="0"/>
		<edge from-layer="195" from-port="3" to-layer="196" to-port="1"/>
		<edge from-layer="196" from-port="2" to-layer="197" to-port="0"/>
		<edge from-layer="197" from-port="3" to-layer="198" to-port="0"/>
		<edge from-layer="197" from-port="3" to-layer="199" to-port="0"/>
		<edge from-layer="197" from-port="3" to-layer="200" to-port="0"/>
		<edge from-layer="200" from-port="3" to-layer="201" to-port="0"/>
		<edge from-layer="197" from-port="3" to-layer="202" to-port="0"/>
		<edge from-layer="202" from-port="3" to-layer="203" to-port="0"/>
		<edge from-layer="198" from-port="3" to-layer="204" to-port="0"/>
		<edge from-layer="199" from-port="3" to-layer="204" to-port="1"/>
		<edge from-layer="201" from-port="3" to-layer="204" to-port="2"/>
		<edge from-layer="203" from-port="3" to-layer="204" to-port="3"/>
		<edge from-layer="204" from-port="4" to-layer="206" to-port="0"/>
		<edge from-layer="205" from-port="1" to-layer="206" to-port="1"/>
		<edge from-layer="206" from-port="2" to-layer="207" to-port="0"/>
		<edge from-layer="207" from-port="1" to-layer="209" to-port="0"/>
		<edge from-layer="208" from-port="1" to-layer="209" to-port="1"/>
		<edge from-layer="209" from-port="2" to-layer="210" to-port="0"/>
		<edge from-layer="210" from-port="2" to-layer="211" to-port="0"/>
		<edge from-layer="196" from-port="2" to-layer="212" to-port="0"/>
		<edge from-layer="211" from-port="3" to-layer="212" to-port="1"/>
		<edge from-layer="212" from-port="2" to-layer="213" to-port="0"/>
		<edge from-layer="213" from-port="3" to-layer="214" to-port="0"/>
		<edge from-layer="213" from-port="3" to-layer="215" to-port="0"/>
		<edge from-layer="213" from-port="3" to-layer="216" to-port="0"/>
		<edge from-layer="216" from-port="3" to-layer="217" to-port="0"/>
		<edge from-layer="213" from-port="3" to-layer="218" to-port="0"/>
		<edge from-layer="218" from-port="3" to-layer="219" to-port="0"/>
		<edge from-layer="214" from-port="3" to-layer="220" to-port="0"/>
		<edge from-layer="215" from-port="3" to-layer="220" to-port="1"/>
		<edge from-layer="217" from-port="3" to-layer="220" to-port="2"/>
		<edge from-layer="219" from-port="3" to-layer="220" to-port="3"/>
		<edge from-layer="220" from-port="4" to-layer="222" to-port="0"/>
		<edge from-layer="221" from-port="1" to-layer="222" to-port="1"/>
		<edge from-layer="222" from-port="2" to-layer="223" to-port="0"/>
		<edge from-layer="223" from-port="1" to-layer="225" to-port="0"/>
		<edge from-layer="224" from-port="1" to-layer="225" to-port="1"/>
		<edge from-layer="225" from-port="2" to-layer="226" to-port="0"/>
		<edge from-layer="226" from-port="2" to-layer="227" to-port="0"/>
		<edge from-layer="212" from-port="2" to-layer="228" to-port="0"/>
		<edge from-layer="227" from-port="3" to-layer="228" to-port="1"/>
		<edge from-layer="228" from-port="2" to-layer="229" to-port="0"/>
		<edge from-layer="229" from-port="3" to-layer="230" to-port="0"/>
		<edge from-layer="229" from-port="3" to-layer="231" to-port="0"/>
		<edge from-layer="229" from-port="3" to-layer="232" to-port="0"/>
		<edge from-layer="232" from-port="3" to-layer="233" to-port="0"/>
		<edge from-layer="229" from-port="3" to-layer="234" to-port="0"/>
		<edge from-layer="234" from-port="3" to-layer="235" to-port="0"/>
		<edge from-layer="230" from-port="3" to-layer="236" to-port="0"/>
		<edge from-layer="231" from-port="3" to-layer="236" to-port="1"/>
		<edge from-layer="233" from-port="3" to-layer="236" to-port="2"/>
		<edge from-layer="235" from-port="3" to-layer="236" to-port="3"/>
		<edge from-layer="236" from-port="4" to-layer="238" to-port="0"/>
		<edge from-layer="237" from-port="1" to-layer="238" to-port="1"/>
		<edge from-layer="238" from-port="2" to-layer="239" to-port="0"/>
		<edge from-layer="239" from-port="1" to-layer="241" to-port="0"/>
		<edge from-layer="240" from-port="1" to-layer="241" to-port="1"/>
		<edge from-layer="241" from-port="2" to-layer="242" to-port="0"/>
		<edge from-layer="242" from-port="2" to-layer="243" to-port="0"/>
		<edge from-layer="228" from-port="2" to-layer="244" to-port="0"/>
		<edge from-layer="243" from-port="3" to-layer="244" to-port="1"/>
		<edge from-layer="244" from-port="2" to-layer="245" to-port="0"/>
		<edge from-layer="245" from-port="3" to-layer="246" to-port="0"/>
		<edge from-layer="245" from-port="3" to-layer="247" to-port="0"/>
		<edge from-layer="245" from-port="3" to-layer="248" to-port="0"/>
		<edge from-layer="248" from-port="3" to-layer="249" to-port="0"/>
		<edge from-layer="245" from-port="3" to-layer="250" to-port="0"/>
		<edge from-layer="250" from-port="3" to-layer="251" to-port="0"/>
		<edge from-layer="246" from-port="3" to-layer="252" to-port="0"/>
		<edge from-layer="247" from-port="3" to-layer="252" to-port="1"/>
		<edge from-layer="249" from-port="3" to-layer="252" to-port="2"/>
		<edge from-layer="251" from-port="3" to-layer="252" to-port="3"/>
		<edge from-layer="252" from-port="4" to-layer="254" to-port="0"/>
		<edge from-layer="253" from-port="1" to-layer="254" to-port="1"/>
		<edge from-layer="254" from-port="2" to-layer="255" to-port="0"/>
		<edge from-layer="255" from-port="1" to-layer="257" to-port="0"/>
		<edge from-layer="256" from-port="1" to-layer="257" to-port="1"/>
		<edge from-layer="257" from-port="2" to-layer="258" to-port="0"/>
		<edge from-layer="258" from-port="2" to-layer="259" to-port="0"/>
		<edge from-layer="244" from-port="2" to-layer="260" to-port="0"/>
		<edge from-layer="259" from-port="3" to-layer="260" to-port="1"/>
		<edge from-layer="260" from-port="2" to-layer="261" to-port="0"/>
		<edge from-layer="261" from-port="3" to-layer="262" to-port="0"/>
		<edge from-layer="261" from-port="3" to-layer="263" to-port="0"/>
		<edge from-layer="261" from-port="3" to-layer="264" to-port="0"/>
		<edge from-layer="264" from-port="3" to-layer="265" to-port="0"/>
		<edge from-layer="261" from-port="3" to-layer="266" to-port="0"/>
		<edge from-layer="266" from-port="3" to-layer="267" to-port="0"/>
		<edge from-layer="262" from-port="3" to-layer="268" to-port="0"/>
		<edge from-layer="263" from-port="3" to-layer="268" to-port="1"/>
		<edge from-layer="265" from-port="3" to-layer="268" to-port="2"/>
		<edge from-layer="267" from-port="3" to-layer="268" to-port="3"/>
		<edge from-layer="268" from-port="4" to-layer="270" to-port="0"/>
		<edge from-layer="269" from-port="1" to-layer="270" to-port="1"/>
		<edge from-layer="270" from-port="2" to-layer="271" to-port="0"/>
		<edge from-layer="271" from-port="1" to-layer="273" to-port="0"/>
		<edge from-layer="272" from-port="1" to-layer="273" to-port="1"/>
		<edge from-layer="273" from-port="2" to-layer="274" to-port="0"/>
		<edge from-layer="274" from-port="2" to-layer="275" to-port="0"/>
		<edge from-layer="260" from-port="2" to-layer="276" to-port="0"/>
		<edge from-layer="275" from-port="3" to-layer="276" to-port="1"/>
		<edge from-layer="276" from-port="2" to-layer="277" to-port="0"/>
		<edge from-layer="277" from-port="3" to-layer="278" to-port="0"/>
		<edge from-layer="276" from-port="2" to-layer="279" to-port="0"/>
		<edge from-layer="279" from-port="3" to-layer="280" to-port="0"/>
		<edge from-layer="280" from-port="3" to-layer="281" to-port="0"/>
		<edge from-layer="278" from-port="1" to-layer="282" to-port="0"/>
		<edge from-layer="281" from-port="3" to-layer="282" to-port="1"/>
		<edge from-layer="282" from-port="2" to-layer="283" to-port="0"/>
		<edge from-layer="283" from-port="2" to-layer="284" to-port="0"/>
		<edge from-layer="284" from-port="3" to-layer="285" to-port="0"/>
		<edge from-layer="284" from-port="3" to-layer="286" to-port="0"/>
		<edge from-layer="284" from-port="3" to-layer="287" to-port="0"/>
		<edge from-layer="287" from-port="3" to-layer="288" to-port="0"/>
		<edge from-layer="284" from-port="3" to-layer="289" to-port="0"/>
		<edge from-layer="289" from-port="3" to-layer="290" to-port="0"/>
		<edge from-layer="285" from-port="3" to-layer="291" to-port="0"/>
		<edge from-layer="286" from-port="3" to-layer="291" to-port="1"/>
		<edge from-layer="288" from-port="3" to-layer="291" to-port="2"/>
		<edge from-layer="290" from-port="3" to-layer="291" to-port="3"/>
		<edge from-layer="291" from-port="4" to-layer="293" to-port="0"/>
		<edge from-layer="292" from-port="1" to-layer="293" to-port="1"/>
		<edge from-layer="293" from-port="2" to-layer="294" to-port="0"/>
		<edge from-layer="294" from-port="1" to-layer="296" to-port="0"/>
		<edge from-layer="295" from-port="1" to-layer="296" to-port="1"/>
		<edge from-layer="296" from-port="2" to-layer="297" to-port="0"/>
		<edge from-layer="297" from-port="2" to-layer="298" to-port="0"/>
		<edge from-layer="283" from-port="2" to-layer="299" to-port="0"/>
		<edge from-layer="298" from-port="3" to-layer="299" to-port="1"/>
		<edge from-layer="299" from-port="2" to-layer="300" to-port="0"/>
		<edge from-layer="300" from-port="3" to-layer="301" to-port="0"/>
		<edge from-layer="300" from-port="3" to-layer="302" to-port="0"/>
		<edge from-layer="300" from-port="3" to-layer="303" to-port="0"/>
		<edge from-layer="303" from-port="3" to-layer="304" to-port="0"/>
		<edge from-layer="300" from-port="3" to-layer="305" to-port="0"/>
		<edge from-layer="305" from-port="3" to-layer="306" to-port="0"/>
		<edge from-layer="301" from-port="3" to-layer="307" to-port="0"/>
		<edge from-layer="302" from-port="3" to-layer="307" to-port="1"/>
		<edge from-layer="304" from-port="3" to-layer="307" to-port="2"/>
		<edge from-layer="306" from-port="3" to-layer="307" to-port="3"/>
		<edge from-layer="307" from-port="4" to-layer="309" to-port="0"/>
		<edge from-layer="308" from-port="1" to-layer="309" to-port="1"/>
		<edge from-layer="309" from-port="2" to-layer="310" to-port="0"/>
		<edge from-layer="310" from-port="1" to-layer="312" to-port="0"/>
		<edge from-layer="311" from-port="1" to-layer="312" to-port="1"/>
		<edge from-layer="312" from-port="2" to-layer="313" to-port="0"/>
		<edge from-layer="313" from-port="2" to-layer="314" to-port="0"/>
		<edge from-layer="299" from-port="2" to-layer="315" to-port="0"/>
		<edge from-layer="314" from-port="3" to-layer="315" to-port="1"/>
		<edge from-layer="315" from-port="2" to-layer="316" to-port="0"/>
		<edge from-layer="316" from-port="3" to-layer="317" to-port="0"/>
		<edge from-layer="315" from-port="2" to-layer="318" to-port="0"/>
		<edge from-layer="318" from-port="3" to-layer="319" to-port="0"/>
		<edge from-layer="319" from-port="3" to-layer="320" to-port="0"/>
		<edge from-layer="317" from-port="1" to-layer="321" to-port="0"/>
		<edge from-layer="320" from-port="3" to-layer="321" to-port="1"/>
		<edge from-layer="321" from-port="2" to-layer="322" to-port="0"/>
		<edge from-layer="322" from-port="2" to-layer="323" to-port="0"/>
		<edge from-layer="323" from-port="3" to-layer="324" to-port="0"/>
		<edge from-layer="323" from-port="3" to-layer="325" to-port="0"/>
		<edge from-layer="323" from-port="3" to-layer="326" to-port="0"/>
		<edge from-layer="326" from-port="3" to-layer="327" to-port="0"/>
		<edge from-layer="323" from-port="3" to-layer="328" to-port="0"/>
		<edge from-layer="328" from-port="3" to-layer="329" to-port="0"/>
		<edge from-layer="324" from-port="3" to-layer="330" to-port="0"/>
		<edge from-layer="325" from-port="3" to-layer="330" to-port="1"/>
		<edge from-layer="327" from-port="3" to-layer="330" to-port="2"/>
		<edge from-layer="329" from-port="3" to-layer="330" to-port="3"/>
		<edge from-layer="330" from-port="4" to-layer="332" to-port="0"/>
		<edge from-layer="331" from-port="1" to-layer="332" to-port="1"/>
		<edge from-layer="332" from-port="2" to-layer="333" to-port="0"/>
		<edge from-layer="333" from-port="1" to-layer="335" to-port="0"/>
		<edge from-layer="334" from-port="1" to-layer="335" to-port="1"/>
		<edge from-layer="335" from-port="2" to-layer="336" to-port="0"/>
		<edge from-layer="336" from-port="2" to-layer="337" to-port="0"/>
		<edge from-layer="322" from-port="2" to-layer="338" to-port="0"/>
		<edge from-layer="337" from-port="3" to-layer="338" to-port="1"/>
		<edge from-layer="338" from-port="2" to-layer="339" to-port="0"/>
		<edge from-layer="339" from-port="3" to-layer="340" to-port="0"/>
		<edge from-layer="339" from-port="3" to-layer="341" to-port="0"/>
		<edge from-layer="339" from-port="3" to-layer="342" to-port="0"/>
		<edge from-layer="342" from-port="3" to-layer="343" to-port="0"/>
		<edge from-layer="339" from-port="3" to-layer="344" to-port="0"/>
		<edge from-layer="344" from-port="3" to-layer="345" to-port="0"/>
		<edge from-layer="340" from-port="3" to-layer="346" to-port="0"/>
		<edge from-layer="341" from-port="3" to-layer="346" to-port="1"/>
		<edge from-layer="343" from-port="3" to-layer="346" to-port="2"/>
		<edge from-layer="345" from-port="3" to-layer="346" to-port="3"/>
		<edge from-layer="346" from-port="4" to-layer="348" to-port="0"/>
		<edge from-layer="347" from-port="1" to-layer="348" to-port="1"/>
		<edge from-layer="348" from-port="2" to-layer="349" to-port="0"/>
		<edge from-layer="349" from-port="1" to-layer="351" to-port="0"/>
		<edge from-layer="350" from-port="1" to-layer="351" to-port="1"/>
		<edge from-layer="351" from-port="2" to-layer="352" to-port="0"/>
		<edge from-layer="352" from-port="2" to-layer="353" to-port="0"/>
		<edge from-layer="338" from-port="2" to-layer="354" to-port="0"/>
		<edge from-layer="353" from-port="3" to-layer="354" to-port="1"/>
		<edge from-layer="354" from-port="2" to-layer="355" to-port="0"/>
		<edge from-layer="355" from-port="3" to-layer="356" to-port="0"/>
		<edge from-layer="356" from-port="1" to-layer="357" to-port="0"/>
	</edges>
	<meta_data>
		<MO_version value="2019.3.0-375-g332562022"/>
		<cli_parameters>
			<blobs_as_inputs value="False"/>
			<caffe_parser_path value="DIR"/>
			<data_type value="float"/>
			<disable_nhwc_to_nchw value="False"/>
			<disable_omitting_optional value="False"/>
			<disable_resnet_optimization value="False"/>
			<enable_concat_optimization value="False"/>
			<enable_flattening_nested_params value="False"/>
			<enable_ssd_gluoncv value="False"/>
			<extensions value="DIR"/>
			<framework value="onnx"/>
			<freeze_placeholder_with_value value="{}"/>
			<generate_experimental_IR_V10 value="False"/>
			<input_model value="DIR\LapNet_chkpt_better_epoch17274_GPU0.onnx"/>
			<input_model_is_text value="False"/>
			<input_shape value="(1,3,512,1024)"/>
			<k value="DIR\CustomLayersMapping.xml"/>
			<keep_quantize_ops_in_IR value="False"/>
			<keep_shape_ops value="False"/>
			<legacy_mxnet_model value="False"/>
			<log_level value="ERROR"/>
			<mean_scale_values value="{}"/>
			<mean_values value="()"/>
			<move_to_preprocess value="False"/>
			<output_dir value="DIR"/>
			<placeholder_shapes value="[   1    3  512 1024]"/>
			<remove_memory value="False"/>
			<remove_output_softmax value="False"/>
			<reverse_input_channels value="False"/>
			<save_params_from_nd value="False"/>
			<scale_values value="()"/>
			<silent value="False"/>
			<steps value="False"/>
			<version value="False"/>
			<unset unset_cli_parameters="batch, counts, disable_fusing, disable_gfusing, finegrain_fusing, generate_deprecated_IR_V2, input, input_checkpoint, input_meta_graph, input_proto, input_symbol, mean_file, mean_file_offsets, model_name, nd_prefix_name, output, pretrained_model_name, saved_model_dir, saved_model_tags, scale, tensorboard_logdir, tensorflow_custom_layer_libraries, tensorflow_custom_operations_config_update, tensorflow_object_detection_api_pipeline_config, tensorflow_operation_patterns, tensorflow_subgraph_patterns, tensorflow_use_custom_operations_config"/>
		</cli_parameters>
	</meta_data>
</net>
